output/har/wle_0410_1.pth (torch, 166199 bytes, 8 tensors)

fc1.weight f4 [128, 55]
-0.17049107 0.1726964 -0.07308285 0.12385745 0.0929356 -0.1284239 0.15507825 0.07800992
0.09425095 -0.3215549 -0.081771374 -0.05191436 -0.040632084 -0.13580514 -0.06140491 -0.0013835601
-0.12800173 -0.14481702 0.04613119 -0.003340228 -0.13159803 0.13196747 -0.0008735581 -0.05257192
-0.0047538807 -0.0989911 0.035158437 -0.13774374 -0.015099034 0.052388657 -0.18363371 -0.22892895
-0.002180623 0.04422957 0.2062069 0.03862798 -0.29726413 -0.23882133 -0.15685777 0.022862678
-0.14102753 0.042575374 -0.19276908 -0.07064407 -0.09876683 -0.008360724 0.07120922 0.100489296
-0.035536654 0.15943605 -0.12708361 -0.18109109 -0.15962729 0.18149126 -0.1824869 0.014465816
-0.06212713 0.0460158 0.098204285 0.18736787 -0.10694 -0.0019165019 -0.09400008 0.23658532
-0.063141845 -0.05090007 -0.016959088 -0.17820624 -0.11749956 0.2011031 0.2743454 -0.041657783
-0.16083471 -0.06227926 0.18602471 -0.030720884 0.10069742 0.04175039 -0.04555985 -0.22435682
-0.11863449 0.03369103 -0.15351856 0.033109084 -0.0105777 -0.02519376 -0.091175675 0.05230683
0.11858774 -0.2775664 0.08098715 0.18753247 0.14892727 0.19833268 0.20353004 0.1778781
0.014236225 -0.02854551 -0.08013574 0.16747692 0.069051035 0.005575363 0.0090818 0.05728177
-0.030850075 0.121260665 -0.09183119 -0.14993876 -0.05424968 0.022728352 -0.112304874 0.04212272
-0.011485538 -0.020379193 0.14761057 0.106976524 0.18445101 0.029866394 0.13090333 0.18456969
-0.15051813 -0.059537765 0.13494001 0.04649281 0.07499924 0.002855285 0.1954748 -0.143809
-0.050229773 -0.21722119 0.08060163 0.08691224 0.009518736 -0.15290223 0.12052078 0.2761467
0.032552212 -0.0155620165 0.22263119 0.22962183 0.2508801 -0.19451934 0.024545226 0.119361915
0.022039484 0.24798514 0.06696564 0.16902962 -0.00581963 -0.24983528 -0.06913182 0.19532192
0.075719886 0.15763481 -0.09674857 0.087784424 -0.019134441 -0.06980943 -0.11279248 0.18504108
0.08222308 0.07189585 0.31008047 0.08410798 0.05004411 -0.032919787 -0.0024588252 0.15367512
-0.11236449 -0.105885915 0.18217754 -0.23639815 -0.050710805 -0.38934845 -0.1913654 -0.0016842411
0.085502476 0.05649882 -0.053375088 -0.2619514 -0.08563154 -0.18318303 -0.0663195 -0.13659102
0.30487615 -0.059254795 -0.043361057 0.03306877 0.01218585 0.012861166 0.10042352 0.049347434
0.09682154 0.21438697 -0.14155778 0.011929374 -0.07003232 0.21388638 -0.023849554 -0.081072554
0.04877801 -0.07224736 0.23466313 -0.12636206 0.20955841 -0.036890198 -0.0019662925 0.016736396
-0.007059981 -0.090596475 -0.047256302 0.13035487 0.037426114 -0.06182364 -0.26343182 0.066827975
0.2630943 -0.031113347 -0.15645872 0.06913864 -0.2064796 -0.046706013 -0.19567493 0.006706745
-0.23129302 0.0062988964 0.006900487 -0.023067627 0.061203916 -0.07096575 0.0046923384 -0.0006993555
0.095083974 0.04072796 -0.17877667 -0.1337381 0.56978554 0.053794973 -0.07165228 -0.046307243
0.005648182 -0.070434965 -0.014050152 0.21838775 -0.10161813 0.0009395072 0.11886122 0.057775527
0.08706419 -0.031873222 -0.061308883 -0.26351234 -0.27944654 0.0797765 -0.18504271 -0.19074167
00000000: 3695 2ebe 53d7 303e 76ac 95bd faa8 fd3d
00000010: 0555 be3d 8e81 03be d5cc 1e3e aac3 9f3d
00000020: a406 c13d d8a2 a4be c077 a7bd 27a4 54bd
00000030: d46d 26bd 8110 0bbe b783 7bbd 9358 b5ba
00000040: e312 03be ea4a 14be 0ff4 3c3d bae7 5abb
00000050: a2c1 06be 7b22 073e 7eff 64ba a755 57bd
00000060: 71c6 9bbb d9bb cabd 4b02 103d b20c 0dbe
00000070: f061 77bc 7d95 563d 7a0a 3cbe 5a6c 6abe
00000080: c8e8 0ebb 112a 353d e727 533e 5f38 1e3d
00000090: 0133 98be 948d 74be 539f 20be 834a bb3c
000000a0: 8569 10be 8463 2e3d 4265 45be d7ad 90bd
000000b0: 4446 cabd 6bfb 08bc 24d6 913d 55cd cd3d
000000c0: e28e 11bd 3443 233e 3522 02be f16f 39be
000000d0: 5675 23be d8d8 393e d9dd 3abe 0802 6d3c
000000e0: 0479 7ebd 107b 3c3d 541f c93d 5ddd 3f3e
000000f0: 5c03 dbbd 2233 fbba 1d83 c0bd 6c43 723e
00000100: 8350 81bd 987c 50bd c9ed 8abc b27b 36be
00000110: 9ca3 f0bd f9ed 4d3e 0077 8c3e 5aa1 2abd
00000120: dbb1 24be 8a18 7fbd 437d 3e3e 5daa fbbc
00000130: 733a ce3d 7502 2b3d f79c 3abd cbbd 65be
00000140: a4f6 f2bd 9bff 093d f833 1dbe 649d 073d
00000150: 174e 2dbc 2563 cebc 50ba babd b03f 563d
00000160: 21de f23d 2f1d 8ebe 97dc a53d 8308 403e
00000170: 6480 183e b917 4b3e 2e6a 503e ad25 363e
00000180: 0e3f 693c 46d8 e9bc 351e a4bd 127f 2b3e
00000190: a16a 8d3d 89b1 b63b d4cb 143c 4aa0 6a3d
000001a0: 4cb9 fcbc 8357 f83d fe11 bcbd 8c89 19be
000001b0: ea34 5ebd cf30 ba3c 1900 e6bd e088 2c3d
000001c0: d72d 3cbc 44f2 a6bc 3a27 173e 8216 db3d
000001d0: bae0 3c3e 5eaa f43c 860b 063e d6ff 3c3e
000001e0: 6d21 1abe dfdd 73bd b72d 0a3e 3f6f 3e3d
000001f0: 3499 993d bc1f 3b3b 8c2a 483e ab42 13be
00000200: bcbd 4dbd 3b6f 5ebe 7812 a53d 0bff b13d
00000210: 79f4 1b3c 6792 1cbe 99d3 f63d 1a63 8d3e
00000220: 7855 053d d4f7 7ebc 6ef9 633e fc21 6b3e
00000230: 5b73 803e 1430 47be 1213 c93c 0574 f43d
00000240: 268c b43c d1ef 7d3e 4825 893d 1a16 2d3e
00000250: 98b2 bebb d2d4 7fbe fc94 8dbd 7802 483e
00000260: 0713 9b3d 056b 213e 1d24 c6bd 52c8 b33d
00000270: d5bf 9cbc 3ff8 8ebd beff e6bd 697b 3d3e
00000280: 9364 a83d 223e 933d dec2 9e3e ce40 ac3d
00000290: 0dfb 4c3d e6d6 06bd 3e24 21bb 035d 1d3e
000002a0: 5b1f e6bd b7da d8bd c08c 3a3e 5b12 72be
000002b0: 22b6 4fbd ae58 c7be 4bf5 43be c1c1 dcba
000002c0: ec1b af3d 4f6b 673d d69f 5abd 7e1e 86be
000002d0: 975f afbd 5594 3bbe 85d2 87bd 84de 0bbe
000002e0: ba18 9c3e 28b5 72bd 5d9b 31bd 1e73 073d
000002f0: 29a7 473c a4b7 523c d9aa cd3d 8920 4a3d
00000300: 5f4a c63d 4288 5b3e 86f4 10be 6c73 433c
00000310: 1b6d 8fbd 0805 5b3e 2460 c3bc 5e09 a6bd
00000320: 73cb 473d 6df6 93bd 884b 703e 0e65 01be
00000330: 7b96 563e 2d1a 17bd eadc 00bb c41a 893c
00000340: 6a57 e7bb a58a b9bd d38f 41bd bf7b 053e
00000350: 204c 193d c93a 7dbd 89e0 86be 1bdd 883d
00000360: 4cb4 863e 6be1 febc b736 20be 8f98 8d3d
00000370: 636f 53be ce4e 3fbd 025f 48be 41c4 db3b
00000380: 14d8 6cbe f966 ce3b 7b1d e23b 52f8 bcbc
00000390: f5b0 7a3d 7e56 91bd 30c2 993b f454 37ba
000003a0: 63bb c23d 5dd2 263d 3b11 37be a4f2 08be
000003b0: 77dd 113f 1e58 5c3d 6ebe 92bd aaac 3dbd
000003c0: 6214 b93b 3540 90bd 9c32 66bc 0aa1 5f3e
000003d0: 2b1d d0bd 4349 763a 836d f33d 08a6 6c3d
000003e0: b64e b23d 7f8d 02bd 061f 7bbd 17eb 86be
000003f0: 9e13 8fbe dd61 a33d d67b 3dbe c951 43be

fc1.bias f4 [128]
-0.092875734 -0.20639989 0.031203145 0.013623827 -0.1466751 -0.32349727 -0.1667126 -0.15722927
-0.26079154 -0.20017448 -0.32703066 -0.060005378 -0.17913307 -0.18811208 -0.06271427 -0.18187773
-0.0027313232 -0.19076551 -0.10661171 -0.11229679 0.1041912 -0.08766311 -0.052938018 -0.06488694
-0.15037945 -0.2582878 -0.04578911 -0.06602398 -0.028812056 -0.15354338 0.09097659 -0.20832014
-0.21420494 0.13255936 -0.18915808 -0.08971927 -0.062176265 -0.18721838 -0.045398146 -0.24806666
-0.13350126 -0.20373373 -0.15821822 -0.28897622 0.008976666 -0.21961203 -0.3594241 -0.17717627
-0.2774077 0.0010402312 0.082442515 -0.05118447 -0.4331214 -0.12724818 -0.035007387 -0.10874805
-0.3861813 -0.019877305 -0.29229644 -0.12618546 -0.03798414 -0.24096298 -0.1425289 -0.049705498
0.114950985 -0.03841233 0.14232656 -0.15816607 -0.38037306 -0.12141953 -0.27468944 -0.036213133
0.03881214 -0.03503979 -0.04607819 -0.13321921 -0.2502919 -0.019096136 -0.017738251 -0.20828088
0.0148431705 -0.1364618 -0.020557774 -0.23577568 -0.00050622795 -0.21605943 -0.17080791 0.10079346
-0.25020552 -0.02849043 -0.19489874 0.052094784 -0.049508702 -0.089788854 -0.3996808 -0.077085465
-0.166698 -0.21035843 0.04957698 -0.22567496 0.007432724 -0.015750416 -0.1629165 -0.42329517
-0.14132497 -0.07853681 -0.09173075 -0.41483727 -0.22220486 -0.25279045 -0.15660466 -0.12395481
-0.24110007 -0.2031003 -0.14289388 -0.14470643 -0.054660205 -0.5510626 -0.34240943 -0.13000794
-0.26860014 -0.4338576 -0.27920836 0.10836693 -0.21028906 -0.058177385 -0.16711454 -0.068500526
00000000: a235 bebd 7e5a 53be bd9d ff3c 7936 5f3c
00000010: ff31 16be 6fa1 a5be b5b6 2abe b600 21be
00000020: 7886 85be 8afa 4cbe 9070 a7be 33c8 75bd
00000030: a96e 37be 74a0 40be 5770 80bd 283e 3abe
00000040: 0000 33bb 0958 43be 3d57 dabd dcfb e5bd
00000050: 3262 d53d b788 b3bd 89d5 58bd 72e3 84bd
00000060: 12fd 19be 4c3e 84be 5d8d 3bbd 9537 87bd
00000070: 4307 ecbc 7a3a 1dbe ef51 ba3d e051 55be
00000080: 8a58 5bbe a4bd 073e a8b2 41be bdbe b7bd
00000090: 8aac 7ebd 2db6 3fbe 68f3 39bd 3005 7ebe
000000a0: 8eb4 08be 939f 50be f503 22be b1f4 93be
000000b0: de12 133c fae1 60be 7006 b8be b26d 35be
000000c0: 6208 8ebe 5e58 883a 9fd7 a83d cfa6 51bd
000000d0: 17c2 ddbe 594d 02be e863 0fbd 4cb7 debd
000000e0: 8eb9 c5be bbd5 a2bc e1a7 95be c336 01be
000000f0: 4295 1bbd 00bf 76be 19f3 11be fe97 4bbd
00000100: 6c6b eb3d 3f56 1dbd 0ebe 113e 49f6 21be
00000110: 42c0 c2be cdaa f8bd 18a4 8cbe 3954 14bd
00000120: 7af9 1e3d e285 0fbd 7cbc 3cbd 9e6a 08be
00000130: 4326 80be 806f 9cbc cf4f 91bc 9547 55be
00000140: c530 733c a4bc 0bbe c768 a8bc 2e6f 71be
00000150: 62b4 04ba af3e 5dbe 45e8 2ebe cd6c ce3d
00000160: f01a 80be c364 e9bc 8993 47be 5761 553d
00000170: a3c9 4abd 38e3 b7bd f6a2 ccbe fcde 9dbd
00000180: e1b2 2abe 3368 57be 3b11 4b3d 5617 67be
00000190: 358e f33b 0407 81bc 95d3 26be 25ba d8be
000001a0: 7eb7 10be e8d7 a0bd 55dd bbbd 8d65 d4be
000001b0: ac89 63be c06d 81be f95c 20be 05dc fdbd
000001c0: f0e2 76be 86f9 4fbe c652 12be ec2d 14be
000001d0: 61e3 5fbd 7012 0dbf 4a50 afbe cd20 05be
000001e0: f585 89be 9522 debe 66f4 8ebe 7bef dd3d
000001f0: 0456 57be 694b 6ebd 1320 2bbe 014a 8cbd

fc2.weight f4 [128, 128]
0.010309201 -0.05518118 -0.11091273 -0.021012167 -0.009152734 0.11830184 0.062554285 -0.09807348
0.11946808 -0.07791438 0.021254485 0.044745527 0.17954893 0.27121595 -0.049371343 -0.00044274924
0.16483481 0.14797401 0.07173894 -0.15153019 0.07514169 -0.13274886 -0.13648054 0.13340719
0.0651916 -0.103824586 -0.007930013 0.09904805 0.0027845579 0.051709548 -0.12511787 0.028378887
0.037774727 -0.08138219 -0.13248268 -0.017025419 -0.03376686 0.028736828 0.0042216764 0.14040704
0.10098808 0.059539184 0.043412954 -0.06488781 0.071505725 0.03032648 0.077747785 0.027627451
-0.10350092 -0.095313355 -0.17342275 -0.11658848 0.01898556 0.029383356 0.10066033 -0.05717969
0.0094806785 -0.026136851 0.09873876 0.05218254 -0.058400627 0.2043307 -0.057421256 -0.0018306167
0.12184415 0.14095916 0.0014346376 -0.11433753 0.08750018 0.04958514 -0.11542401 -0.011673543
0.0486468 -0.101204164 -0.10987681 -0.038743358 -0.10448253 -0.039971028 -0.06990875 0.18649729
0.11666527 0.055747878 -0.15441051 0.052827563 0.15044542 -0.07973243 0.004546489 0.07217183
0.04655472 0.13237758 0.039329287 -0.0869992 0.11881176 0.07092175 0.120800965 -0.049725838
-0.11627437 -0.0069064666 -0.0114381695 -0.115542516 0.060267575 0.03512171 -0.07952311 0.03450734
-0.07534116 -0.15061617 -0.067130946 0.113491625 -0.03597993 -0.057612456 0.17767799 -0.15144056
0.01912974 -0.04576402 -0.0015700775 0.04803157 0.03131973 -0.013172638 -0.088593274 0.1641381
0.0133382855 0.05669205 0.17227261 0.14236909 -0.020720765 0.12140008 0.20727442 -0.11875665
-0.010351114 0.047377508 0.081900366 -0.0013634419 -0.060903534 -0.09538031 0.021963626 -0.062313605
0.015602819 -0.027093373 -0.06503478 -0.00048058893 -0.07059176 0.020691365 -0.040635303 0.06659063
0.14849338 0.08064185 0.024696907 -0.042477503 -0.11540402 -0.099258944 0.14426726 0.0482568
0.008833558 0.0484906 0.027596205 0.0007835667 -0.09203698 -0.04790686 0.023769269 0.0854807
-0.045899227 -0.010502578 0.036885213 -0.0073451307 -0.02049394 -0.03847905 -0.039596613 -0.013712325
0.09337994 -0.02411698 -0.04663424 -0.08126683 0.061163407 -0.0053549707 0.016933301 0.064146385
0.00072628504 -0.12323738 -0.03390742 -0.056060866 -0.08283676 0.08193585 0.053096518 -0.073015265
0.06604892 -0.17799425 0.20150577 -0.011347201 0.016585026 0.04604464 -0.058801282 -0.046983555
-0.04528826 -0.06787366 0.03744678 -0.11925624 0.058863953 0.09764339 0.1751703 0.01606353
-0.040290903 0.034633204 -0.06804746 -0.002053218 -0.12754184 -0.0731311 0.056584876 0.11874629
-0.016984867 0.09884032 0.1647153 0.0675367 -0.04401171 0.08376199 0.015317836 -0.004485599
-0.008695758 0.035874743 -0.033868227 0.1655497 0.07015841 -0.040691774 0.16295739 0.037870206
-0.085706584 0.12535834 0.054817922 -0.03795941 0.04223339 0.031158807 -0.0062209796 0.14841242
-0.08589301 -0.133787 -0.013543889 -0.09517332 0.10295424 0.030845672 0.11241295 0.0010894868
0.124765925 0.019969344 0.15295158 0.12081138 -0.04578292 0.04389713 -0.043736994 0.039978683
0.0074694813 0.10642872 0.004305571 -0.03211281 0.026889594 -0.023580106 0.07821755 0.04537633
00000000: ece7 283c a905 62bd 3726 e3bd b521 acbc
00000010: 59f5 15bc 3c48 f23d 761c 803d c0da c8bd
00000020: aeab f43d 9391 9fbd e31d ae3c 1647 373d
00000030: addb 373e d1dc 8a3e 9b39 4abd cc20 e8b9
00000040: 75ca 283e 8086 173e deeb 923d bb2a 1bbe
00000050: e3e3 993d 51ef 07be 8ec1 0bbe e59b 083e
00000060: 2c83 853d fca1 d4bd e3ec 01bc b4d9 ca3d
00000070: 217d 363b 64cd 533d e61e 00be d77a e83c
00000080: acb9 1a3d b5ab a6bd 8aa9 07be e478 8bbc
00000090: 1e4f 0abd 7f69 eb3c fd55 8a3b ddc6 0f3e
000000a0: d7d2 ce3d 5cdf 733d c8d1 313d e6e3 84bd
000000b0: 9871 923d 3d6f f83c 3b3a 9f3d f752 e23c
000000c0: 4af8 d3bd a633 c3bd bc95 31be f1c5 eebd
000000d0: 9b87 9b3c 5db5 f03c 0127 ce3d 4035 6abd
000000e0: d954 1b3c f31c d6bc 8c37 ca3d 5cbd 553d
000000f0: 7f35 6fbd 113c 513e 8d32 6bbd 4ef1 efba
00000100: 6d89 f93d 9957 103e 730a bc3a cc29 eabd
00000110: 4b33 b33d ca19 4b3d 6c63 ecbd 6342 3fbc
00000120: de41 473d 2144 cfbd 1807 e1bd 5bb1 1ebd
00000130: f0fa d5bd a9b8 23bd 522c 8fbd 25f9 3e3e
00000140: 33ee ee3d e357 643d ca1d 1ebe b761 583d
00000150: 5d0e 1a3e c24a a3bd b7fa 943b d3ce 933d
00000160: 29b0 3e3d fd8d 073e bf17 213d a32c b2bd
00000170: 9453 f33d 6c3f 913d 7f66 f73d 52ad 4bbd
00000180: 4221 eebd a44f e2bb 2967 3bbc 8ea1 ecbd
00000190: 22db 763d c8db 0f3d 03dd a2bd 9257 0d3d
000001a0: 774c 9abd 203b 1abe f37b 89bd 4c6e e83d
000001b0: b15f 13bd 0afb 6bbd 38f1 353e 3c13 1bbe
000001c0: f9b5 9c3c 0e73 3bbd 0fcb cdba c0bc 443d
000001d0: 1e49 003d 0cd2 57bc 6470 b5bd d113 283e
000001e0: d388 5a3c ec35 683d 3b68 303e 34c9 113e
000001f0: 98be a9bc 9ba0 f83d bf3f 543e b036 f3bd
00000200: b897 29bc eb0e 423d 61bb a73d 85b5 b2ba
00000210: fc75 79bd c156 c3bd 10ed b33c 8d3c 7fbd
00000220: f7a2 7f3c ecf2 ddbc f430 85bd 8ef7 fbb9
00000230: 6a92 90bd f080 a93c 3471 26bd ab60 883d
00000240: a60e 183e 8e27 a53d 2b51 ca3c e4fc 2dbd
00000250: f158 ecbd 4648 cbbd ccba 133e eca8 453d
00000260: a1ba 103c 149e 463d 7011 e23c 4568 4d3a
00000270: e27d bcbd fc39 44bd c5b7 c23c 8110 af3d
00000280: d400 3cbd 0113 2cbc f314 173d 6caf f0bb
00000290: e8e2 a7bc 359c 1dbd 0f30 22bd a9a9 60bc
000002a0: fb3d bf3d f990 c5bc 8b03 3fbd 396f a6bd
000002b0: 7b86 7a3d c078 afbb b5b7 8a3c 2e5f 833d
000002c0: 2a64 3e3a e163 fcbd 82e2 0abd 14a0 65bd
000002d0: 52a6 a9bd fccd a73d bc7b 593d 0789 95bd
000002e0: a844 873d 2044 36be 8757 4e3e 9ce9 39bc
000002f0: 52dd 873c 4e99 3c3d 9dd9 70bd d471 40bd
00000300: 2f80 39bd 5801 8bbd cb61 193d 9e3c f4bd
00000310: 541b 713d 42f9 c73d d85f 333e aa97 833c
00000320: 1308 25bd 8cdb 0d3d 775c 8bbd 488f 06bb
00000330: 549a 02be c2c5 95bd 8bc5 673d 4131 f33d
00000340: d923 8bbc cb6c ca3d 21ab 283e ae50 8a3d
00000350: 9f45 34bd 688b ab3d a9f7 7a3c effb 92bb
00000360: a778 0ebc 65f1 123d 69b9 0abd dc85 293e
00000370: 36af 8f3d 6bac 26bd 4dde 263e ca1d 1b3d
00000380: ef86 afbd f05d 003e c288 603d 547b 1bbd
00000390: ebfc 2c3d c140 ff3c 5cd9 cbbb 6df9 173e
000003a0: ade8 afbd 76ff 08be 30e7 5dbc 3bea c2bd
000003b0: acd9 d23d 10b0 fc3c c338 e63d 1ccd 8e3a
000003c0: 4785 ff3d c096 a33c 579f 1c3e f56b f73d
000003d0: df86 3bbd 7acd 333d 9025 33bd b0c0 233d
000003e0: 8dc2 f43b 4df7 d93d bf15 8d3b b988 03bd
000003f0: 9147 dc3c 112b c1bc 8630 a03d 88dc 393d

fc2.bias f4 [128]
-0.015617393 -0.046856813 -0.0064822133 -0.03701397 0.022431545 -0.001863815 0.09595362 0.007031109
-0.07394565 -0.10763266 0.1210301 -0.065524794 0.044581376 0.019556206 -0.026652658 -0.0733283
0.029449858 -0.010682342 0.021547696 -0.012690554 0.08613902 0.17055155 0.13749367 0.020974746
-0.03297032 0.17895553 0.0009983054 0.047250498 0.0044231676 0.080777735 0.1340278 0.080685474
-0.03252826 0.06175099 0.059485696 0.08526317 -0.055015124 -0.1301948 0.10381461 -0.022010496
-0.049133655 0.015836626 -0.034600936 -0.0216007 0.038008347 0.0065127886 0.087792546 -0.074479155
0.109435365 0.008927084 0.1259815 -0.046271533 -0.13331628 -0.055751435 -0.04088341 -0.008042669
-0.06591359 0.1542521 -0.123964 0.09255921 -0.049171884 0.08887794 0.17016855 -0.054657843
0.12395982 0.043628886 0.07142354 -0.012719017 -0.07091178 0.10383484 0.040039167 0.13630204
-0.115136325 -0.011276969 0.015024253 0.027190197 0.061505545 -0.052052606 -0.025767487 0.13440117
0.014436437 0.22231978 0.02558417 0.013490159 -0.08456275 0.035171162 -0.015580963 0.055320136
-0.017286265 -0.03497122 -0.030584155 0.02609878 0.02239614 0.083195075 0.030818362 -0.0145370485
0.09140138 0.064955845 0.033116616 0.00081332494 0.046827745 -0.009060805 -0.01379033 -0.05620628
0.0070459847 -0.067606136 0.030165704 0.13208467 0.07503075 -0.017467583 0.19642305 0.08030498
-0.01705699 0.05342031 -0.05163885 0.05190757 -0.07265884 -0.07469314 -0.029557712 -0.0137612065
-0.021401113 0.0295619 -0.020422919 -0.05352235 0.037767317 -0.0028456193 0.06799529 0.17834109
00000000: 18e0 7fbc eeec 3fbd bf68 d4bb f69b 17bd
00000010: 5cc2 b73c 414b f4ba 5583 c43d 3865 e63b
00000020: d170 97bd 836e dcbd a1de f73d dd31 86bd
00000030: f69a 363d 5634 a03c ad56 dabc 262d 96bd
00000040: d440 f13c fd04 2fbc cb84 b03c 0bec 4fbc
00000050: a869 b03d 11a5 2e3e 24cb 0c3e 3bd3 ab3c
00000060: e30b 07bd 1e40 373e 92d9 823a bd89 413d
00000070: 38f0 903b cc6e a53d 953e 093e 6d3e a53d
00000080: 5a3c 05bd 9bee 7c3d 46a7 733d 759e ae3d
00000090: 8a57 61bd c951 05be c19c d43d 5b4f b4bc
000000a0: 5f40 49bd d0bb 813c b6b9 0dbd f4f3 b0bc
000000b0: a4ae 1b3d 3b69 d53b 94cc b33d 8788 98bd
000000c0: a61f e03d e742 123c 4b01 013e 3887 3dbd
000000d0: 1084 08be 9e5b 64bd 5d75 27bd 66c5 03bc
000000e0: b4fd 86bd 43f4 1d3e d6e0 fdbd af8f bd3d
000000f0: 7568 49bd a305 b63d aa40 2e3e e7e0 5fbd
00000100: a5de fd3d 34b4 323d 8146 923d 6d63 50bc
00000110: 323a 91bd 5ca7 d43d 1c00 243d c392 0b3e
00000120: 98cc ebbd 09c3 38bc 4928 763c fabd de3c
00000130: 3ded 7b3d 1d35 55bd 5616 d3bc 76a0 093e
00000140: ce86 6c3c cca7 633e e595 d13c d405 5d3c
00000150: 3c2f adbd a30f 103d 4c47 7fbc 5e97 623d
00000160: ed9b 8dbc fb3d 0fbd 9f8b fabc 1ccd d53c
00000170: 1c78 b73c 2e62 aa3d ca76 fc3c cd2c 6ebc
00000180: a630 bb3d 9207 853d 4aa5 073d 5035 553a
00000190: 73ce 3f3d c573 14bc d6f0 61bc 8e38 66bd
000001a0: 01e2 e63b 1675 8abd 111e f73c 3441 073e
000001b0: b9a9 993d 2d18 8fbc 2023 493e f076 a43d
000001c0: 1abb 8bbc 41cf 5a3d 4283 53bd 089d 543d
000001d0: 28ce 94bd b8f8 98bd 0423 f2bc af76 61bc
000001e0: 6351 afbc cc2b f23c f74d a7bc 403a 5bbd
000001f0: e7b1 1a3d 927d 3abb 1d41 8b3d 0c9f 363e

fc3.weight f4 [128, 128]
0.081248716 0.06477624 -0.0066912635 0.08648777 0.0048203296 -0.012531106 -0.026497902 0.08665767
-0.017714625 -0.07811952 -0.09423682 0.02457693 -0.010539339 -0.0403504 0.13859764 0.067799166
-0.053724427 0.07080082 0.0098475 0.06667763 -0.032070614 -0.03566552 0.0835769 0.086612135
0.13186844 -0.0029897264 -0.038286805 -0.048131526 -0.055366408 0.017204395 0.06572284 0.02380254
0.0069932006 0.06209671 -0.04348689 -0.03996399 0.0068802205 0.051667806 0.017762896 -0.015400274
-0.06787785 -0.037025377 -0.0018174609 -0.007827449 -0.021943336 -0.08353257 -0.01709556 0.011115698
0.02517638 -0.0059415614 -0.021668578 0.107279144 -0.043020956 -0.042207353 -0.058932688 0.0052282335
0.0801581 0.0031469204 0.016729495 0.021635545 -0.08866988 0.025526216 -0.012000328 0.0063446434
-0.0051425067 0.09045521 0.03365029 0.057273094 -0.08874806 -0.038568016 -0.04100107 -0.07992871
0.08992537 -0.0073710894 0.08915597 -0.029662618 -0.028796883 -0.02421406 0.07159135 0.050232377
-0.0715577 -0.077348165 -0.008134393 0.04211736 0.085170604 0.038576525 0.09773135 0.06670626
-0.034747027 0.038653288 0.07943896 0.019686133 -0.083350435 -0.068459034 0.053273894 0.06854236
-0.044156272 0.15382692 -0.018638324 -0.11048683 0.046757244 0.0056087845 -0.0030129335 0.044470724
-0.020967383 0.05687788 0.04041813 -0.0061474545 -0.032798678 -0.025963388 -0.078861035 0.007911501
0.0002494879 -0.028514965 0.013176632 -0.025696952 -0.06901978 -0.01025617 -0.05603532 0.06612315
0.06000216 -0.1104003 0.011561973 -0.05459611 0.060967688 -0.06745692 -0.0531572 0.026637806
-0.084224306 -0.00070222287 -0.06161528 -0.059962098 0.027209803 0.07691821 -0.04094191 -0.068299204
0.033297267 0.056892395 -0.07431263 0.08248201 -0.06306518 -0.025422819 -0.052746672 0.027476868
-0.06638431 0.043941077 0.07497932 -0.026465526 -0.036930043 0.0056450376 -0.07092285 -0.057739105
-0.030536074 0.00534223 0.03586379 0.008902374 0.021639712 -0.056643706 -0.08056372 -0.046059247
-0.015106947 0.021479871 -0.029500537 0.048650954 0.020160677 -0.061856598 0.06853404 -0.05129702
-0.046878718 -0.060971785 0.036044154 -0.07461048 -0.05913027 0.060715083 -0.046220634 0.030248616
-0.04703917 0.0075538065 -0.07618533 -0.07215765 -0.036637437 0.025457518 -0.018868767 0.08493587
0.06327651 -0.008914069 0.01943258 -0.06730626 0.03566012 -0.027654422 -0.011922528 0.06350723
-0.024536284 0.044841252 -0.014602693 0.05877675 0.07559479 0.004697904 0.053441133 0.08449304
0.04884299 0.008970012 -0.044791035 -0.07590737 0.013816967 -0.049897484 0.07268208 0.012889344
-0.069308676 -0.03799385 -0.015881462 -0.046477456 -0.010386887 -0.016130678 0.033484645 -0.065076254
-0.0662147 0.008462955 -0.05157199 -0.01910541 0.026642293 0.003336015 -0.067192405 0.009316946
-0.00056196173 -0.06020199 0.008657723 -0.081228115 0.07668595 0.053482495 -0.056065958 0.028765034
0.015916247 0.07526104 0.06350823 0.017599674 -0.023243954 -0.0061425343 -0.07594186 -0.058598127
0.054903053 0.052742157 -0.00056550675 0.006697008 -0.0016363065 -0.07404055 0.008491619 -0.0038751322
-0.07197948 0.0028400705 -0.01177365 0.061560187 0.036098093 -0.048782825 -0.090102226 -0.028650872
00000000: ba65 a63d 68a9 843d 6342 dbbb 8020 b13d
00000010: dbf3 9d3b 454f 4dbc 2112 d9bc 9479 b13d
00000020: 431e 91bc 20fd 9fbd 3cff c0bd 8f55 c93c
00000030: 31ad 2cbc 7646 25bd 8aec 0d3e 4ada 8a3d
00000040: 250e 5cbd 0500 913d 6957 213c 488e 883d
00000050: 7a5c 03bd 0216 12bd 5e2a ab3d b461 b13d
00000060: 8508 073e 49ef 43bb a0d2 1cbd 9025 45bd
00000070: e3c7 62bd 3bf0 8c3c b299 863d 8bfd c23c
00000080: 3827 e53b 1f59 7e3d 4f1f 32bd 48b1 23bd
00000090: 7973 e13b 9fa1 533d 7e83 913c 6e51 7cbc
000000a0: 8b03 8bbd eca7 17bd de37 eeba b33e 00bc
000000b0: 83c2 b3bc 2013 abbd fd0b 8cbc 9e1e 363c
000000c0: b23e ce3c 6eb1 c2bb 4d82 b1bc 2bb5 db3d
000000d0: be36 30bd 9ee1 2cbd 6763 71bd 9a51 ab3b
000000e0: ee29 a43d 903c 4e3b 4b0c 893c 073d b13c
000000f0: 8e98 b5bd 5b1c d13c 069d 44bc bae6 cf3b
00000100: 7982 a8bb 9540 b93d e3d4 093d 3197 6a3d
00000110: 8bc1 b5bd 7ff9 1dbd bdf0 27bd aab1 a3bd
00000120: cb2a b83d 2e89 f1bb 6897 b63d 05ff f2bc
00000130: 71e7 ebbc 905c c6bc 7c9e 923d 77c0 4d3d
00000140: d88c 92bd b768 9ebd 1e46 05bc 4183 2c3d
00000150: ed6d ae3d 6b02 1e3d 6027 c83d 4b9d 883d
00000160: e652 0ebd e952 1e3d e5b0 a23d d044 a13c
00000170: a2b3 aabd 4034 8cbd ba35 5a3d f05f 8c3d
00000180: 35dd 34bd ce84 1d3e 66af 98bc eb46 e2bd
00000190: 8684 3f3d e5c9 b73b a374 45bb ef26 363d
000001a0: cac3 abbc c8f8 683d 7b8d 253d 9670 c9bb
000001b0: e857 06bd 2cb1 d4bc e581 a1bd 3e9f 013c
000001c0: b3cd 8239 3798 e9bc cde2 573c 6a82 d2bc
000001d0: 3e5a 8dbd 7f09 28bc 4b85 65bd 936b 873d
000001e0: d3c4 753d 8d19 e2bd 6e6e 3d3c 2ca0 5fbd
000001f0: 41b9 793d db26 8abd 5dbb 59bd 8737 da3c
00000200: cb7d acbd 6115 38ba 4e60 7cbd d19a 75bd
00000210: 18e7 de3c 4b87 9d3d b4b2 27bd 74e0 8bbd
00000220: b762 083d 0008 693d 3831 98bd 54ec a83d
00000230: 5128 81bd 8443 d0bc e50c 58bd 2b17 e13c
00000240: 7ff4 87bd 8ffb 333d c28e 993d 3bce d8bc
00000250: f543 17bd 02fa b83b 0040 91bd d77f 6cbd
00000260: ca26 fabc e00d af3b e9e5 123d 43db 113c
00000270: c445 b13c 3b03 68bd 97fe a4bd 9fa8 3cbd
00000280: 2183 77bc 8ef6 af3c 1cab f1bc 3946 473d
00000290: 0128 a53c 585d 7dbd 935b 8c3d d31c 52bd
000002a0: e603 40bd 8dbd 79bd 09a3 133d 61cd 98bd
000002b0: 9532 72bd 61b0 783d d951 3dbd f2cb f73c
000002c0: 25ac 40bd ec85 f73b 0e07 9cbd 64c7 93bd
000002d0: 2311 16bd 498c d03c ac92 9abc dbf2 ad3d
000002e0: 1d97 813d 510c 12bc 1331 9f3c ddd7 89bd
000002f0: 5910 123d 878b e2bc b556 43bc 1410 823d
00000300: 5100 c9bc 76ab 373d 2240 6fbc e4bf 703d
00000310: 71d1 9a3d e0f0 993b 17e5 5a3d b00a ad3d
00000320: 960f 483d f5f6 123c ce76 37bd 5375 9bbd
00000330: 8f60 623c 4e61 4cbd 58da 943d d42d 533c
00000340: b5f1 8dbd 709f 1bbd d719 82bc 255f 3ebd
00000350: c32d 2abc 7c24 84bc 3227 093d b346 85bd
00000360: 939b 87bd 35a8 0a3c 273d 53bd f382 9cbc
00000370: f040 da3c 0ba1 5a3b 2c9c 89bd 1ba6 183c
00000380: 9d50 13ba 5d96 76bd 1fd9 0d3c ed5a a6bd
00000390: 860d 9d3d 7610 5b3d 6ba5 65bd a6a4 eb3c
000003a0: ca62 823c 7622 9a3d 9a10 823d 312d 903c
000003b0: 1b6a bebc 5047 c9bb 6887 9bbd 9704 70bd
000003c0: 06e2 603d 2908 583d 843e 14ba 9372 db3b
000003d0: 5679 d6ba 92a2 97bd 6e20 0b3c eef5 7dbb
000003e0: fa69 93bd 7a20 3a3b 44e6 40bc 8926 7c3d
000003f0: 98db 133d 80d0 47bd 8487 b8bd 3cb5 eabc

fc3.bias f4 [128]
0.04723213 -0.041144796 0.19307598 0.004945793 0.022325011 0.12027798 0.0031530557 -0.05419686
0.18648781 -0.071489 0.082465515 0.01797245 0.14877857 -0.015774447 -0.030241478 0.09029569
0.14579181 -0.086591035 0.10221734 0.152804 -0.061240006 0.010193716 -0.10539544 0.035805967
-0.058699004 -0.024685586 0.018490067 0.09690884 0.0073936423 -0.0177489 0.06790389 -0.008968961
0.22808409 -0.024232864 -0.006932989 0.056781366 -0.08001531 -0.03230109 0.11866917 -0.0039523337
-0.019164281 0.088787265 -0.050189838 -0.09681371 0.13036904 0.020971129 0.10058766 0.3216381
0.038484123 -0.029809173 0.0570303 0.008928905 -0.064351544 -0.08626887 -0.010317393 0.17444998
-0.07223743 0.15601854 0.006283411 -0.05575628 -0.03807062 0.17737314 0.01512241 -0.017664306
-0.1414021 -0.025785822 -0.07288643 0.2038297 -0.086427115 0.04011316 0.14104001 0.019565072
-0.008256273 -0.050510302 -0.079069935 0.009764518 0.100090116 -0.05712235 0.047178507 -0.04352867
0.0691541 0.12688202 0.014506557 -0.017713832 0.0020356185 0.05924691 -0.08531938 0.20439056
-0.06568759 -0.025704185 -0.17543362 0.02401508 -0.0889527 0.15361537 0.041106075 0.026573576
0.050395004 -0.001251419 0.21076837 0.074688725 -0.033047486 0.11227747 -0.051359862 0.12459709
0.06608077 -0.08007387 -0.010657697 0.080050156 -0.03170367 -0.017009115 -0.0055503114 -0.014846375
0.010550832 0.22365591 0.18238762 -0.0802881 -0.027464712 0.0012414455 -0.021883978 0.10388707
-0.13374238 -0.016319633 0.16274162 0.040643845 0.023211742 -0.017512692 0.004837393 -0.0011894518
00000000: 7a76 413d 7287 28bd b6b5 453e 5210 a23b
00000010: f1e2 b63c 4d54 f63d 7fa3 4e3b 87fd 5dbd
00000020: a9f6 3e3e d368 92bd aee3 a83d f63a 933c
00000030: 6959 183e 6a39 81bc fabc f7bc f2ec b83d
00000040: 734a 153e a456 b1bd 5357 d13d a778 1c3e
00000050: cdd6 7abd 8b03 273c 90d9 d7bd 47a9 123d
00000060: 5e6e 70bd 6d39 cabc 7b78 973c 2478 c63d
00000070: 5e46 f23b 2466 91bc 3211 8b3d 8df2 12bc
00000080: e08e 693e 0084 c6bc 212e e3bb 9493 683d
00000090: 11df a3bd 264e 04bd d208 f33d 9482 81bb
000000a0: 69fe 9cbc 19d6 b53d dc93 4dbd 4446 c6bd
000000b0: 767f 053e a5cb ab3c e700 ce3d c0ad a43e
000000c0: 87a1 1d3d 5e32 f4bc 9b98 693d 8b4a 123c
000000d0: beca 83bd bcad b0bd 480a 29bc 04a3 323e
000000e0: 38f1 93bd 53c3 1f3e 12e5 cd3b b260 64bd
000000f0: f0ef 1bbd 4ea1 353e fcc3 773c bcb4 90bc
00000100: b6cb 10be ca3c d3bc 7b45 95bd bcb8 503e
00000110: b300 b1bd b24d 243d cb6c 103e ee46 a03c
00000120: 5245 07bc e4e3 4ebd 6bef a1bd 5bfb 1f3c
00000130: 0cfc cc3d 20f9 69bd 403e 413d 1e4b 32bd
00000140: aaa0 8d3d 5ced 013e e9ac 6d3c 991c 91bc
00000150: 0368 053b e3ac 723d edbb aebd c24b 513e
00000160: 3787 86bd 9591 d2bc dfa4 33be 46bb c43c
00000170: d52c b6bd 594d 1d3e d85e 283d d4b0 d93c
00000180: fe6a 4e3d a706 a4ba aad3 573e 67f6 983d
00000190: cd5c 07bd bbf1 e53d b85e 52bd c22c ff3d
000001a0: 5b55 873d c5fd a3bd 9f9d 2ebc 56f1 a33d
000001b0: b5db 01bd b356 8bbc 63df b5bb 363e 73bc
000001c0: 66dd 2c3c 0e06 653e d2c3 3a3e 166e a4bd
000001d0: adfd e0bc 00b8 a23a 0746 b3bc bfc2 d43d
000001e0: c3f3 08be c0b0 85bc bda5 263e 297a 263d
000001f0: 8d26 be3c c776 8fbc fe82 9e3b 61e7 9bba

fc4.weight f4 [5, 128]
0.013803076 -0.08770209 -0.13181037 0.31343734 -0.1382282 -0.28949487 0.1023924 -0.018282412
0.35130057 -0.016876034 -0.046457246 0.3791874 0.23556845 0.07905685 0.30364007 0.27141973
0.15314756 0.030220734 0.24026823 -0.5723386 0.011761601 -0.05343161 -0.24235867 -0.008594684
0.18744738 0.020355823 0.051562723 -0.023184922 0.021035034 0.48707998 0.10519658 -0.020104907
-0.26756814 -0.23257983 0.11067931 -0.12593637 0.042332113 -0.13120572 0.036825042 0.046192124
-0.10423683 -0.230479 0.3077537 0.110515535 0.25279984 -0.39497635 -0.14548646 -0.38047063
-0.109157234 0.07858418 -0.07751571 -0.30802628 0.31093618 -0.124513954 0.057118196 -0.10325523
-0.08467185 0.18120074 -0.017423134 0.2601711 -0.18555766 -0.50952744 0.0843549 0.4103656
0.458057 -0.11544104 0.10901284 -0.46190736 0.23091598 -0.3105434 -0.11185917 0.124151915
0.29138097 0.0466603 -0.0313801 0.06815068 0.056967914 -0.00436146 0.10944404 0.08615058
0.06810676 -0.025680551 0.062691666 -0.0044753477 0.5246286 0.027054457 -0.15494844 -0.13429134
-0.09214554 -0.08030002 -0.41198915 0.007479837 -0.020848827 0.3694173 0.07886564 0.060338363
0.33010355 -0.04128841 -0.5077273 0.009499199 -0.010925168 0.35055402 -0.29600808 -0.201643
-0.117066376 0.05641517 -0.3093638 -0.20707266 0.06758306 -0.13339345 0.20839942 -0.005319323
-0.3106329 0.070165865 0.08252864 0.646458 0.004419172 0.25990316 0.02661067 -0.06723056
0.07793766 0.23645978 -0.2933676 -0.38190255 0.11891308 -0.024497973 -0.04105537 0.025397118
-0.16794777 -0.06359722 -0.049064364 0.0069486466 -0.035678726 -0.009255348 -0.19904095 -0.059906933
0.45483142 -0.0347241 -0.25199488 -0.16775063 -0.5283738 0.028096506 -0.0323907 0.15541147
-0.2334123 -0.048151474 -0.028259004 0.16448914 0.34146503 0.20021531 0.34643772 0.039394714
0.25010678 -0.17688061 -0.080419615 -0.17151377 0.08605881 0.1941813 0.22631356 0.1449598
-0.32788774 0.047484208 -0.2342971 0.04540423 -0.08389264 0.057025183 0.08768823 0.1538426
0.15048099 0.13617401 0.5148062 -0.064305454 0.114645466 0.34932902 -0.34184977 -0.05281304
0.12693912 0.006086953 -0.023443153 0.13547398 -0.041022535 0.1916186 -0.08782827 -0.28386903
-0.06482579 0.21645269 0.06204393 0.038077142 -0.03451088 0.22991799 -0.007956311 -0.058186308
0.09719741 0.031234978 0.1382736 -0.29818505 -0.04656297 -0.05461203 -0.106104925 0.17598613
0.34788737 0.07404732 0.21761796 0.069434725 -0.46052864 0.06903993 -0.5069215 -0.10891703
0.025394486 -0.3292502 0.19087383 -0.11429647 -0.23668955 -0.06318728 -0.079980165 -0.46250767
0.16293283 0.2614346 0.305523 0.33592674 0.07750391 0.06788983 0.01458853 0.17322214
0.28023714 -0.031933997 -0.1693785 -0.0728762 -0.053000774 -0.25662732 0.13517058 -0.46707356
0.18244456 -0.039923176 0.08944974 0.13150753 0.0049240272 -0.20608367 -0.09059429 0.062148504
0.29388508 0.12007543 0.22130898 -0.04731097 -0.056910362 0.063308 0.03979279 -0.31931427
-0.03215452 -0.066450275 -0.0728194 0.23619959 -0.009800351 0.07139683 0.10343467 -0.08095421
00000000: 4c26 623c 279d b3bd 4cf9 06be dc7a a03e
00000010: b18b 0dbe ac38 94be 1bb3 d13d ffc4 95bc
00000020: abdd b33e 9c3f 8abc f449 3ebd da24 c23e
00000030: db38 713e 8fe8 a13d b676 9b3e 87f7 8a3e
00000040: b7d2 1c3e 7991 f73c e008 763e c884 12bf
00000050: bbb3 403c 1bdb 5abd df2c 78be b8d0 0cbc
00000060: 35f2 3f3e 41c1 a63c 6f33 533d 4eee bdbc
00000070: aa51 ac3c 8c62 f93e 4e71 d73d 0cb3 a4bc
00000080: b1fe 88be 6829 6ebe d6ab e23d 77f5 00be
00000090: 7064 2d3d cb5a 06be dbd5 163d f433 3d3d
000000a0: 1e7a d5bd b002 6cbe e591 9d3e f855 e23d
000000b0: fb6e 813e 573a cabe 67fa 14be 0ccd c2be
000000c0: d48d dfbd bef0 a03d 8ec0 9ebd 9fb5 9dbe
000000d0: 0733 9f3e 2c01 ffbd c5f4 693d 7a77 d3bd
000000e0: 6f68 adbd b08c 393e f6ba 8ebc 2535 853e
000000f0: d402 3ebe 6470 02bf 43c2 ac3d 711b d23e
00000100: 7286 ea3e 5a6c ecbd 2042 df3d 1f7f ecbe
00000110: 3d75 6c3e 8bff 9ebe 6c16 e5bd 5c43 fe3d
00000120: e32f 953e df1e 3f3d 6b88 00bd 9592 8b3d
00000130: 3057 693d 94ea 8ebb 3224 e03d b76f b03d
00000140: 8f7b 8b3d 0560 d2bc 7d64 803d f0a5 92bb
00000150: 0f4e 063f 4fa1 dd3c ceaa 1ebe ab83 09be
00000160: cdb6 bcbd 5674 a4bd 3ef0 d2be 6c19 f53b
00000170: 29cb aabc 4424 bd3e 4f84 a13d 5c25 773d
00000180: 5503 a93e 091e 29bd 6bfa 01bf 87a2 1b3c
00000190: 7aff 32bc d17b b33e 5f8e 97be 817b 4ebe
000001a0: 7fc0 efbd 9813 673d ef64 9ebe db0a 54be
000001b0: fd68 8a3d 4b98 08be a866 553e b74d aebb
000001c0: 470b 9fbe 1fb3 8f3d c704 a93d 467e 253f
000001d0: b4ce 903b 0712 853e 9ffe d93c 2db0 89bd
000001e0: c89d 9f3d 8322 723e 4734 96be bb88 c3be
000001f0: b388 f33d f9af c8bc ad29 28bd 9e0d d03c
00000200: 80fa 2bbe 423f 82bd b7f7 48bd 79b1 e33b
00000210: db23 12bd bea3 17bc 64d1 4bbe f960 75bd
00000220: aadf e83e dc3a 0ebd 7905 81be d2c6 2bbe
00000230: 8143 07bf a52a e63c 1cac 04bd 2f24 1f3e
00000240: a203 6fbe 7b3a 45bd 6d7f e7bc d76f 283e
00000250: 81d4 ae3e 3e05 4d3e 4960 b13e 5a5c 213d
00000260: ff0d 803e 3120 35be 0ab3 a4bd 4ea1 2fbe
00000270: 9a3f b03d 76d7 463e bebe 673e 5870 143e
00000280: e7e0 a7be cd7e 423d 94eb 6fbe c9f9 393d
00000290: e8cf abbd 3d93 693d e395 b33d ea88 1d3e
000002a0: b017 1a3e 3371 0b3e 57ca 033f 94b2 83bd
000002b0: 3ecb ea3d 41db b23e ef06 afbe 7c52 58bd
000002c0: 54fc 013e 1075 c73b db0b c0bc b1b9 0a3e
000002d0: 3f07 28bd ab37 443e 4fdf b3bd 4857 91be
000002e0: 62c3 84bd c6a5 5d3e c721 7e3d c7f6 1b3d
000002f0: 485b 0dbd 9f6f 6b3e 305b 02bc c454 6ebd
00000300: 700f c73d 7fe0 ff3c 9897 0d3e b6ab 98be
00000310: d0b8 3ebd ddb0 5fbd 8a4d d9bd b535 343e
00000320: 4b1e b23e 1fa6 973d 3ed7 5e3e cb33 8e3d
00000330: 69ca ebbe cf64 8d3d 9cc5 01bf e40f dfbd
00000340: 1908 d03c 7b93 a8be 6e74 433e 4514 eabd
00000350: bf5e 72be 5568 81bd a4cc a3bd cecd ecbe
00000360: ddd7 263e c2da 853e 836d 9c3e 97fe ab3e
00000370: 5fba 9e3d d309 8b3d bb04 6f3c 2561 313e
00000380: 3e7b 8f3e 39cd 02bd 8f71 2dbe 1e40 95bd
00000390: 5717 59bd a864 83be 286a 0a3e 4424 efbe
000003a0: bfd2 3a3e 7c86 23bd 6d31 b73d e9a9 063e
000003b0: bc59 a13b 9907 53be 8089 b9bd 6e8f 7e3d
000003c0: 1b78 963e 1bea f53d d29e 623e 26c9 41bd
000003d0: d71a 69bd a0a7 813d c4fd 223d 297d a3be
000003e0: 75b4 03bd 1517 88bd 5622 95bd 4ede 713e
000003f0: a791 20bc 8038 923d 8ed5 d33d 52cb a5bd

fc4.bias f4 [5]
-0.36021534 -0.13187483 0.52350426 0.12203062 -0.30592003
00000000: 256e b8be 320a 07be 6004 063f 31eb f93d
00000010: 8da1 9cbe
