output/mnist/mnist_0410_1.pth (torch, 198025 bytes, 10 tensors)

conv1.weight f4 [16, 1, 5, 5]
00000000: 9687 883d 6528 993e 814c 663e aa3c fcbb
00000010: 4b59 07be 8f7f 42be 0400 c0bc 6637 d6bd
00000020: f961 90bc 0e78 ab3d 87f8 143e 4430 613e
00000030: 8ab1 b63c f086 ff3d c82b 753d 946c 3dbe
00000040: 6784 513e a706 1abd 9d5d 533e 30b9 f53d
00000050: 9909 7abe 1225 fdbd 50fa 523d 9ab0 a5bd
00000060: 0217 42bc 0bf1 35be ae72 01be c648 49be
00000070: ca84 ffbd 4d6a ca3b 58cc f3bd 3509 0cbe
00000080: d09e 04be ca0f 373e 142d 82bd cca0 eabc
00000090: 484b 3b3e 5e6b 6abd bec8 46be 40cc 9e3d
000000a0: c64c 2d3c 51e7 d7bd 63c3 dc3d f05d 47bd
000000b0: 3733 42be c705 02be c347 3f3e 52a5 25be
000000c0: 5d30 7f3d 71c2 363d 9e96 eb3d e5ab c03e
000000d0: c3ae 183e e2e0 98be 849f c2be 8c78 9e3e
000000e0: b122 e63e d0f4 fcbd a9c1 a9be aeac 8ebe
000000f0: 4f0e bb3e 4911 053f 3739 3bbe ef09 9dbe
00000100: a7d7 cfbe 9530 8c3e 43d1 c43e c92a b13d
00000110: 3be9 35bc 260a b3bd fffe d53d 3a48 453e
00000120: 2855 003d 0910 afbd 0c42 933d 3c3d 013d
00000130: 068d adbd f5f3 a7bc 7a4d 8abe fc89 cebd
00000140: ef85 a93d 2169 2b3e 6656 5ebe cdf5 f1be
00000150: d802 63be 9ef4 7abd ab9e 5c3e abad b5bd
00000160: 273e 933d d91d 9b3e 029a 2fbe 41ca b03c
00000170: 9d24 613e 3c03 d23e eec2 3d3e 98e9 203e
00000180: 09c0 6b3e e2c6 093e b1f1 283e 1739 9bbe
00000190: c9fe 07be 2e2f 96be 96a1 75bd 2cdf a1be
000001a0: 9a75 bd3c 631f 233d 5236 57be e1a7 113d
000001b0: c54a 1c3d df1f 8e3e 1ce7 a83e df04 873e
000001c0: 8586 883e 2819 d63e 2778 293e b70e 8ebd
000001d0: 6f17 463e cf8d 52be bc5b d13d 334f 3c3c
000001e0: 18db fbbc a61d 5abe af29 9abe e629 febd
000001f0: 6807 203e 2f54 1fbe d834 fabd a7f6 913d
00000200: 52bc 963d 40e9 0b3b c58e aebd f9fd e83d
00000210: efbe 323b 8a00 0dbd b617 583e 3a02 2cbe
00000220: 078f f2bb 76fb 763e c9b1 413e 2620 d33d
00000230: 166d d4bd 08f2 3b3d 4eda 703e eb93 483e
00000240: 0af0 8ebe 8ffb a2bd 780b ff3d 4d61 ff3d
00000250: 864b 1d3d 201c 9bbe e7e8 73bd 9b02 353e
00000260: ef42 ab3d 569b 723e 701b 753e a465 023e
00000270: 5f12 b53e ee68 fa3e 942b a23e 3b32 94bb
00000280: 53bc dd3e 778f 883e c322 debd c719 56be
00000290: 99cf 0fbe e6e5 6b3e 8fae 63be 677c 58be
000002a0: ea37 42be 36e4 8ebe 0090 61be 26c7 efbe
000002b0: 5a82 d3be fcbe 79be 02ba 0abe 61b9 99be
000002c0: 2818 a1be c463 aebe 5717 fabc 0bcb fabc
000002d0: 4696 1c3d 2210 68be b682 033e ca63 f83c
000002e0: ddaa 29be 3264 c73e abc4 af3e 0658 a93e
000002f0: 0622 533d f5d9 703e e6ba f2bd 8ac4 b23e
00000300: 166f 1d3e 7e32 64bc 4251 093e 908a ffbc
00000310: eb9c 6abe cf17 9cbe 3f51 0fbe 5a04 a7bd
00000320: e74b 773e a7ca cd3e 31fa 2c3e c920 78bd
00000330: 18ea 1cbe abbe 9b3e 338e e53e d828 e23e
00000340: eb0d 843e bf3a 853e 2d90 b0be 73c6 b2bd
00000350: 4d58 bf3e 6d34 d93e 67f2 4f3e 7853 e5be
00000360: 860e 60be 4c98 8bbd d7a7 993c 2464 3c3d
00000370: 5887 afbe de58 03bf b99c b5be 8e73 90bd
00000380: 8c5b 70bd 4cfd 253e 7c21 9ebd 5e0b f83d
00000390: c094 243e bfce 003e 83f1 b1bc 7425 debd
000003a0: 70e1 403e eebe d73d 29b9 0cbe 6645 d3bc
000003b0: 80c0 e43d 02e2 84bd e541 1fbd a97f 1fbe
000003c0: 2f78 503e 5511 4dbe 4601 c8bd f9b1 43be
000003d0: fa12 91bd 91ad 933d 0a20 87bd 7e78 7d3d
000003e0: b914 eabd 3aa3 263d 0e19 c93d fdd6 0abe
000003f0: d4d4 d83c fe4e a1bd b439 90bc 12e9 dfbd
0.06666486 0.2991363 0.22490121 -0.0076976614 -0.13217656 -0.18993972 -0.023437507 -0.10459785
-0.017624842 0.08372508 0.1454793 0.21991068 0.022301454 0.12476909 0.059856206 -0.1849845
0.20460664 -0.037604 0.2064118 0.11998212 -0.24417724 -0.12360586 0.051508248 -0.08090325
-0.011846306 -0.17767732 -0.12641403 -0.19656667 -0.124764994 0.006177223 -0.1190421 -0.13675387
-0.12951207 0.17877117 -0.06356254 -0.028641127 0.18290436 -0.0572313 -0.19412515 0.07753801
0.010577386 -0.10542167 0.107794546 -0.04867357 -0.1896485 -0.12697516 0.18679719 -0.16176346
0.062301982 0.044619028 0.11503337 0.37631145 0.14910416 -0.29859072 -0.38012326 0.30951345
0.44948342 -0.12351382 -0.33155563 -0.2786612 0.36534354 0.519795 -0.18283544 -0.3067164
-0.40594217 0.27380815 0.38440904 0.08650739 -0.01110297 -0.0874217 0.10449027 0.19265833
0.03133121 -0.0854798 0.07190332 0.03155254 -0.08474164 -0.02050207 -0.27012235 -0.10084912
0.08277499 0.16739322 -0.21712646 -0.47257844 -0.22169054 -0.06126844 0.21544902 -0.08871015
0.07189589 0.3029621 -0.17148593 0.021580817 0.21986623 0.41018093 0.18531391 0.15714109
0.23022474 0.13454774 0.16498448 -0.30316994 -0.13280787 -0.2933287 -0.059968553 -0.3161558
0.023127366 0.039824855 -0.21016815 0.035560492 0.038157243 0.2775869 0.32988822 0.26370904
0.2666513 0.41816068 0.1654974 -0.069364004 0.19344877 -0.20561908 0.10222575 0.011493492
-0.03074412 -0.21300372 -0.30109927 -0.12410335 0.15627825 -0.15559457 -0.122171104 0.07127123
0.07360138 0.0021348745 -0.08523325 0.113765664 0.002727445 -0.034424342 0.21102795 -0.16797724
-0.007402304 0.24119362 0.18915476 0.10308866 -0.10372369 0.045885116 0.23520777 0.19587676
-0.2791751 -0.07958137 0.12453359 0.124697305 0.038402103 -0.30294895 -0.059548285 0.17676775
0.08362376 0.23692068 0.23936248 0.12734085 0.3536558 0.4890818 0.31673872 -0.0045225895
0.43307742 0.26671955 -0.10846474 -0.20908271 -0.14044036 0.23036918 -0.22234558 -0.21141206
-0.18966642 -0.27908486 -0.22027588 -0.46831626 -0.41310388 -0.24389261 -0.13547519 -0.30024245
-0.31463742 -0.3406049 -0.030528707 -0.030614397 0.03822925 -0.22662404 0.12842831 0.03032102
-0.16569085 0.3894363 0.34329733 0.3307497 0.05154612 0.23520644 -0.11852054 0.34915572
0.15374407 -0.013928054 0.13409904 -0.031194001 -0.22911422 -0.30486915 -0.13995837 -0.08155127
0.24150048 0.40193674 0.16892315 -0.06057814 -0.15323675 0.30418906 0.44835052 0.44171786
0.2579187 0.26021382 -0.34484997 -0.087292574 0.37372056 0.4242281 0.20307313 -0.44790244
-0.2188054 -0.06816158 0.01875679 0.04599394 -0.34282947 -0.51307476 -0.35471132 -0.0705329
-0.058681056 0.16209906 -0.077212304 0.12111543 0.16072369 0.12578867 -0.021721607 -0.10846987
0.18835998 0.10534464 -0.13742508 -0.025789928 0.11169529 -0.0648842 -0.0388812 -0.15576042
0.20358346 -0.20026143 -0.09765868 -0.1911086 -0.070836976 0.072108395 -0.06597908 0.06188249
-0.11429734 0.04068301 0.09819232 -0.13558574 0.026468672 -0.07876395 -0.01760564 -0.109331265

conv1.bias f4 [16]
00000000: f5b5 95bd c539 0ebd 6832 9bbe 81c6 96bc
00000010: 5237 2dbc 5620 74be 30a6 7fbc 4ca9 cdba
00000020: 939b 5839 b36d bcbd 7d62 a3bd 23e1 8cbe
00000030: 901d e03d e01b 293e cdcb e6bd b227 fb3c
-0.07310096 -0.034723062 -0.30311894 -0.0184052 -0.010572271 -0.2384046 -0.015603587 -0.0015690713
0.00020657321 -0.09200611 -0.079777695 -0.27515516 0.109431386 0.1651454 -0.11269341 0.030658577

conv2.weight f4 [16, 16, 5, 5]
00000000: 59c0 203d 20b2 fb3c 054d 5a3b 6671 803c
00000010: 4bdd 47bd 4360 4ebd c240 98bd 0346 393d
00000020: 09a1 993d f475 8f3d 0d1c 67bd c914 a0bd
00000030: c686 b3bd 6cb9 183d 7e22 3c3d 05f8 adbc
00000040: c36d cfbc 6d6c 91bd c464 f9bb 48e1 2f3d
00000050: bf79 b0bc fa12 e63c d35a 163c b29f 3bbd
00000060: 4b62 11bc cc92 24bc 87fe 45bd 450c 153d
00000070: 8aa0 a93b e972 333d 7049 3f3d eab0 0bbd
00000080: 5ecb b5bc 4de9 b53c 28bc 33bd d528 42bb
00000090: ee59 1e3d f9f7 073d c11a 90bc 3312 203d
000000a0: 9958 afbc 4d9b 47bc 8513 2a3d 0c21 02bd
000000b0: 4d77 083d f3e9 8cbb b9c4 28bd 7319 17bd
000000c0: 1477 e8bc e9da 263d f04e cd3c 9650 693d
000000d0: 084b 6abc a677 1fbd a47c 903c 1aa4 cb3c
000000e0: 6be2 be3c 50c7 66bd c656 c5bc 06c9 963d
000000f0: 4714 1bbc 9cdf 6abd ad35 a8bd 20b4 0cbc
00000100: 10e9 9b3d 6b4b 693c 68d6 94bc 5503 afbd
00000110: 2d4a 93bc 005e a83d 67e4 e5bc e847 0d3d
00000120: 4c72 3fbc 13b7 0ebc a4bc 8a3d 21d8 ddbc
00000130: 9212 4f3d c80f 93bb 651b 9d3c 1653 903c
00000140: cbd7 003d 1354 9cbd cbab 1cbd 3583 a4bb
00000150: 3d34 b83d 4333 49bd 19ad 4dbd 4cb7 71bd
00000160: 04b7 c1bd faaa 9b3c ee9c f6bc d833 81bc
00000170: 0adb 10bd a97a 04bd 7984 353a 23ed ca3c
00000180: 08a9 0a3d 8ffc 553d 2d05 483d 700b a9bd
00000190: 5388 6cbd b4c2 afbc 82d8 a73d d058 fb3c
000001a0: 6353 3fbd 3ea5 d2bb 3f72 45bd 6f84 853c
000001b0: d322 6a3d e703 8fbd a3b9 08bd 7431 04bd
000001c0: d775 5dbb a021 b83d 4a24 3bbd b5e1 04bd
000001d0: 3962 17bd b66a 0abd 77ce 063a c6ca 9abd
000001e0: 7db4 b0bc e084 0d3d 2716 4c3d 5040 923d
000001f0: d7da 6bbd a40b 153d ffee 9ebc e2af 94bd
00000200: 4d70 bdbc f1f2 e2bb d03e 29bd cdc6 1e3b
00000210: 808b 2dbd c0d7 50bd ae33 313d f601 413d
00000220: 9911 ebbc 4625 88bd 815f 74bd f9d9 f93c
00000230: a974 5d3c 7df8 2b3b dfec 88bb f8e8 883c
00000240: df0a 613d 12fc 303d d444 563d a740 2dbd
00000250: 5f29 a03c 4503 e03c fd84 94bd 431e 8cbd
00000260: 281b 44bc 685c 53bd 40f9 f1bd 6c51 11bd
00000270: 9fb6 3b3c 1ab0 59bd ea01 bebd da91 8cbd
00000280: d99c c43b 7bcb 31bd 8cc8 7dbd 61ad bdbd
00000290: c4cf 30bd 44b2 6dbc fa01 e13c 2453 8dbd
000002a0: 8d99 79bd ed47 8a3a b28d 553d 42d6 a2bc
000002b0: 6c6f e8bc b395 7ebb b46a 2f3d 5ad2 8e3b
000002c0: 980c cfbb 65ec 993d 2a66 edbc 709f 8bbc
000002d0: 5936 a6bc 82b9 bbbb d4f0 1bbc 418b f5bc
000002e0: 222f 1ebc 512d 49bd a3ba ccbc f8e5 39bd
000002f0: 95cb 9fbc 5fc3 df3b a82a 47bc e800 ffbc
00000300: 578a babc e497 b73c ed1a 9bbd 0609 193d
00000310: 2e28 09bc c222 1ebc cdca ba3c 3834 043d
00000320: c74a fdbc 054d 0ebc e31c 2dbd e671 9fbc
00000330: effe 25bc ed2a 9fbc 926b 03bc 509b 3e3d
00000340: c5bb 2c3e 077c f5bc aef3 273b bf84 45bd
00000350: b29c 82bd 273c 9e3d 43a1 163e 72b3 8dbd
00000360: f5f3 9cbd 36c6 55bd 214a bfbc f7ee 4f3d
00000370: 13cc 833d fce6 1bbc 87c4 d23a af4f 06bd
00000380: 362d a1bd 63c2 3d3c 6a23 9cbc 3557 093c
00000390: 03dd bd3c 28ec d3bc 87d1 69bb 3a9b bebb
000003a0: e35a cdbc 0fbe 51bd e00c be3c c698 523c
000003b0: c2f3 043d 5dd4 dd3c 4069 42bd 17fc 33bd
000003c0: 4496 853c 54f7 90bc c509 d7bc c9ee 8cbd
000003d0: 93a6 b73c 149e 3dbd 12be eebb 2f6c b6bc
000003e0: 7ed3 09bd 7797 12bd 0422 f5bc 248c ccbc
000003f0: 2c97 21bc 6698 103d 0823 843c cd46 67bb
0.039245937 0.030724585 0.0033310067 0.015679073 -0.048795026 -0.05038477 -0.074342266 0.045232784
0.07501418 0.0700492 -0.056423236 -0.078164645 -0.0876594 0.037286207 0.04593133 -0.021236429
-0.025320893 -0.07100759 -0.007610889 0.042939454 -0.021542428 0.02808522 0.009176928 -0.045806594
-0.0088735325 -0.010044765 -0.04833844 0.036388654 0.0051766085 0.04381076 0.046700895 -0.034104265
-0.0221917 0.022205973 -0.04388061 -0.0029626389 0.038659982 0.03319547 -0.017590882 0.039079856
-0.021404551 -0.012183023 0.04152252 -0.031769797 0.0333169 -0.00430035 -0.041203234 -0.036889505
-0.028377093 0.040736113 0.025062054 0.05696162 -0.014300115 -0.038932465 0.017637558 0.024858523
0.023301324 -0.056342423 -0.024089228 0.07362561 -0.009465284 -0.057342157 -0.08213363 -0.008587867
0.076128125 0.014239172 -0.018168643 -0.085455574 -0.017979706 0.08221054 -0.028063012 0.034492403
-0.011684965 -0.0087106405 0.067742616 -0.027080597 0.05055482 -0.0044879653 0.019178102 0.017617743
0.031455796 -0.076332234 -0.038249772 -0.005020524 0.08994339 -0.049121153 -0.050213907 -0.059012696
-0.094587356 0.019002426 -0.030104127 -0.015771791 -0.035365142 -0.03234354 0.0006924342 0.024771279
0.033852607 0.05224281 0.04883306 -0.08254135 -0.057747196 -0.021455146 0.081955925 0.030681998
-0.046710383 -0.00642839 -0.048204657 0.0162985 0.057162117 -0.06983166 -0.033380162 -0.032273725
-0.0033792162 0.089907885 -0.045688905 -0.032441813 -0.036958907 -0.033793174 0.000514246 -0.07558207
-0.021570439 0.034550548 0.049825814 0.07141173 -0.05758175 0.036388054 -0.019401072 -0.072601095
-0.023124838 -0.0069259335 -0.04131967 0.0024227381 -0.042369366 -0.050987005 0.043262176 0.04712101
-0.028694915 -0.06647734 -0.059661392 0.030499445 0.0135165835 0.002624064 -0.004178628 0.01671265
0.054942008 0.043209143 0.052311733 -0.042297985 0.019550977 0.027345309 -0.07251928 -0.068417095
-0.011969365 -0.051601797 -0.11815119 -0.03547804 0.0114571145 -0.05314646 -0.09277709 -0.068637565
0.006000143 -0.043406945 -0.061958835 -0.09261585 -0.04316689 -0.014507834 0.027466763 -0.069006234
-0.060937453 0.001055 0.052137084 -0.019877557 -0.028373443 -0.0038846552 0.04282637 0.004358572
-0.00631864 0.07515792 -0.02897938 -0.0170438 -0.020289587 -0.0057289014 -0.009517867 -0.029973628
-0.009654792 -0.049115483 -0.02499134 -0.04538533 -0.019506255 0.00682871 -0.012156166 -0.031128362
-0.022771044 0.022411294 -0.07573495 0.03736212 -0.008371396 -0.009651842 0.022801781 0.032276362
-0.030919446 -0.008685355 -0.042263877 -0.01946349 -0.010131582 -0.019429648 -0.008021252 0.046534836
0.16868503 -0.029966367 0.0025627422 -0.0482223 -0.063775435 0.07726317 0.14709954 -0.06918992
-0.076637186 -0.05219098 -0.023350777 0.050765004 0.064354084 -0.00951552 0.0016080298 -0.032790836
-0.078699514 0.01158199 -0.019059855 0.008382608 0.023176676 -0.025869444 -0.0035677867 -0.0058168443
-0.025067752 -0.051206645 0.023199499 0.012853807 0.032459028 0.027078802 -0.047463655 -0.043941583
0.016307004 -0.01769606 -0.026249776 -0.06881482 0.022418296 -0.046293333 -0.0072858417 -0.022268383
-0.03364896 -0.03578898 -0.029923446 -0.024969168 -0.009862702 0.03530159 0.016129985 -0.0035290003

conv2.bias f4 [16]
00000000: 1ec2 52bd fbb9 ef3c 6709 acbd bcc4 12be
00000010: 7aec a13c 35f6 083d 54d5 96bc 6d37 b13c
00000020: 5d5a b5bc ffed 65bd c7a7 26be a890 773c
00000030: b6b9 d63d e1ea 163d 160e 35bb 4eb1 b4bd
-0.051454656 0.029263487 -0.08400231 -0.1433286 0.019766081 0.033437926 -0.01841227 0.021632874
-0.022137815 -0.056135174 -0.1627494 0.015110172 0.1048464 0.03684509 -0.0027626804 -0.08822881

fc1.weight f4 [128, 256]
00000000: 8f7d 34bd 2a2c 28bd 1302 d43c fa66 8dbd
00000010: 214f 25bd e2dd 0a3d 2f50 a4bd 9d98 cc3c
00000020: 136c 8e3c bdaf 68bd 9bf6 fd3b 5730 3a3d
00000030: 1b10 0f3c d53e 243d 2c46 0f3d 23b7 173d
00000040: a6d4 523d 6dd6 b73d 2569 f13d df2e 523d
00000050: 4325 09bd 6366 873d b65f 51bd 78ac 94bd
00000060: ddcd dbbc 7aa6 9cbc 7da2 aabd 04ea 7e3c
00000070: 0d91 80b9 0ac9 8d3d 9831 273d b298 863d
00000080: 31ba 37bc 484a 9bbc 4e2a bcbd 4a7a 06be
00000090: c818 8ebc cdb7 1c3d e376 82bd 5036 f7bc
000000a0: d1ed 743d 185c 793d d640 debd 5726 dc3c
000000b0: 58d8 13bc ce74 34bc 093a 18bd a1ea a53d
000000c0: c4d4 b9bd 5941 74bd f7d7 acbd 88d5 98bd
000000d0: 25c1 3f3d ab5b d63b ce7e 9cbd 7472 c7bd
000000e0: 34f7 99bd 0576 9bbd 5a90 423d fd19 21bb
000000f0: 6b58 ff3c 0eb0 1ebd 0f42 3bbd ab33 0bbb
00000100: 52b4 e2bd 3ff8 453d 7e4a 363d 03e3 6b3d
00000110: 53cd 25bd 2772 f53b 1ea9 1c3d 37a0 083e
00000120: a214 2d3d f1ec 9d3d 6aac 093c eabd 86bd
00000130: f79a c13d 529e b43c 5e28 853c 9af1 3abe
00000140: 84dd 5abd 01c1 57bc b0c4 1e3c 8d08 a9bc
00000150: e317 bc3d 07f7 b53d 39bb 7bbd 17a1 78bd
00000160: 3711 d63c 33f9 f73c e22c 1dbd d748 273b
00000170: 442c c9bc e59a 15bd 81b1 afbd 782f 933c
00000180: 9ac5 ea3c 2bff 43bd f23e 85bd 9e63 f1bd
00000190: fb1b 683d 02ed f1bd 41a4 a7bd 0ec0 0cbd
000001a0: ab67 b03c ca1b 0abd 516f 0abd f765 bd3c
000001b0: f1c7 083d f245 73bd 4129 b4bc 3a6b 8c3d
000001c0: 48ca 63bd 5e82 2ebd de05 a2bd 62e9 7c3b
000001d0: 24ea 08bd 4360 033d 2e14 27bd 732a 873c
000001e0: 9450 5f3c 0d37 5f3c 0a6e 123d ea6e 703d
000001f0: 0e2c 963d db62 50bc 4596 9e3d a75d 923c
00000200: 622b a0bc 17a8 763d 5e5e f53d f1b3 163d
00000210: 97a7 883d 6ca4 39bc cd5d 2c3d 5bd5 4a3d
00000220: f33a e53d 2f0f 8abd 355f b0bd 03e7 293a
00000230: 19df ee3b 28b9 3fbc 83fd 22bd 84e7 f9bc
00000240: 4f63 fb3a 9810 44bc 1c5e 083d 37a3 3fbd
00000250: 1467 8fbc 6047 f53c 25ab 0b3d 4c35 f83c
00000260: f817 f7bc f8ba 273d 0132 85bd 49ed 37bd
00000270: 26e5 b7bc fe5c 0dbb d41e 89bb 4b88 99bc
00000280: 85f7 b63d 74e7 95bc 8558 5e3c 4eb9 97bd
00000290: ec86 87bd 7dfb eb3b f3e9 ac3d 2aa7 5ebd
000002a0: ba9e 0dbd 0b80 a33c 2b0d babd 93a8 0fbe
000002b0: 599d d2bd 164f 09bd 5265 94bc 3c5d 933d
000002c0: dc66 b0b9 47c1 aa3d 9bc3 513d 8f06 b33d
000002d0: eb35 703b 324f 63bc 4268 c63c c804 71bd
000002e0: 4f34 4c3d f837 89bd 5fef ffbb 9043 3cbc
000002f0: 3140 953c 2870 02bb 3088 ae3c 7464 ac3c
00000300: b22b f43b 7f17 073d 4b2e 4dbc 6f56 3e3c
00000310: d9f5 85bd bdaf 73bd 7ec5 1fbd e8d3 2ebd
00000320: 5a23 503d dea8 4bbd a8e9 8cbd 264d 38bb
00000330: 70f1 9c3d 425f b63c 57f0 7c3d bbdd 823d
00000340: 0014 f8bc 8b94 56bd 132a 5ebd 0081 dd3b
00000350: 115f be3c 3b10 0e3d 1489 c3bd 5443 163d
00000360: ee54 463d 2533 abbd b4fc 3e3b 4759 2e3d
00000370: 6b47 2d3b 4cb6 253d f935 e43b 9f13 95bd
00000380: 560a 973d 25a6 133d 8490 a63d 2e10 d3b9
00000390: 3523 42bd 0d04 18bd a6f4 b73d 961b 5c3c
000003a0: b21c 96bd d744 143c dcde 54bd 32f6 90bc
000003b0: 9b48 1fbd c3bc 89bd fa50 7dbd 197d b43c
000003c0: a70b f33c f8d2 b43d ca59 f6bd 2918 d73b
000003d0: b1a7 b53d 978c 413c 53ea 203d 6af7 4b3c
000003e0: eea0 c8ba 0f45 803b 38d8 ce3d ae49 e23b
000003f0: 92cb 66bd aba8 9fbb 8db2 df3a 5a74 aa3b
-0.044065055 -0.041057743 0.025879895 -0.06904407 -0.040358666 0.03390301 -0.08023106 0.024975115
0.017385518 -0.056808222 0.007750345 0.045456257 0.008731867 0.040098984 0.03497903 0.037039887
0.05147233 0.08976445 0.11787633 0.05131423 -0.0334828 0.066113256 -0.051116668 -0.07259458
-0.026831562 -0.019122351 -0.083317734 0.015558723 -0.00024522134 0.06923111 0.04081878 0.06572093
-0.011213825 -0.018956318 -0.091877565 -0.13132587 -0.017345801 0.038261224 -0.06370332 -0.030177265
0.059797112 0.060878843 -0.1085221 0.02687375 -0.009023748 -0.0110141765 -0.03716472 0.081013925
-0.09073785 -0.059632633 -0.084396295 -0.07462603 0.046815056 0.0065416894 -0.076413736 -0.09738627
-0.075178534 -0.0759087 0.047500946 -0.002458214 0.03117009 -0.038742118 -0.045717295 -0.0021240513
-0.110695496 0.04833245 0.044504635 0.057589542 -0.040479016 0.0074904147 0.03824722 0.13342367
0.042256005 0.077112086 0.008402923 -0.06579192 0.09453385 0.02204815 0.0162546 -0.18256226
-0.05343391 -0.013168574 0.009690449 -0.02063396 0.091842435 0.08885007 -0.061457846 -0.060700502
0.026131256 0.030270195 -0.03837288 0.0025525594 -0.02455724 -0.036524672 -0.08578778 0.01796697
0.028658677 -0.04785077 -0.065061465 -0.117865786 0.05666731 -0.11812784 -0.08185626 -0.034362845
0.021533808 -0.033717908 -0.033797566 0.02311991 0.033393804 -0.059392877 -0.021992328 0.06856389
-0.055612832 -0.042604797 -0.07911275 0.0038591255 -0.03342642 0.032074224 -0.04079073 0.016499734
0.013630051 0.013623965 0.035749473 0.058699526 0.073326215 -0.0127188815 0.077435054 0.017866923
-0.019551937 0.060218897 0.1198089 0.0367927 0.0667259 -0.011330705 0.042081643 0.049519878
0.11192884 -0.06741177 -0.08611909 0.0006481262 0.007289779 -0.0117018595 -0.03979255 -0.030505903
0.0019179377 -0.011966847 0.033292875 -0.046786513 -0.017505206 0.02994126 0.034098763 0.030298851
-0.030162796 0.04094979 -0.06503678 -0.044904027 -0.022448134 -0.002157032 -0.004184583 -0.018741747
0.08933929 -0.018298842 0.013570909 -0.07408391 -0.06617531 0.0072016106 0.0844306 -0.05435864
-0.0345752 0.019958517 -0.09084543 -0.1402915 -0.10283918 -0.033522688 -0.01811472 0.071955174
-0.00033645972 0.08337646 0.051211935 0.08741485 0.0036653231 -0.013873862 0.024219636 -0.05884245
0.049854573 -0.06700128 -0.0078105177 -0.0114907175 0.018219085 -0.0019903276 0.021305174 0.021043994
0.007451498 0.032981392 -0.012523244 0.011617287 -0.06541032 -0.05949377 -0.039006703 -0.04268256
0.050814964 -0.04972159 -0.06880504 -0.0028122156 0.07663238 0.02226222 0.061752643 0.06389948
-0.030282974 -0.052387755 -0.054239344 0.0067597628 0.02323869 0.034683447 -0.0954763 0.036685303
0.04842084 -0.083593644 0.0029142322 0.04256561 0.0026440274 0.040457055 0.006964442 -0.07279133
0.07375018 0.03604712 0.08133033 -0.0004025711 -0.047396857 -0.037113238 0.0898221 0.013434311
-0.07329692 0.009049616 -0.051970348 -0.01769552 -0.0388876 -0.067254566 -0.061844803 0.022032307
0.029668642 0.088293016 -0.12028845 0.0065641594 0.08869875 0.011813304 0.03928597 0.012449125
-0.001530675 0.0039144824 0.10099834 0.006905756 -0.056346484 -0.0048724017 0.0017066762 0.0052018585

fc1.bias f4 [128]
00000000: c528 bf3a 032c 1b3c 8e1d 54bd 8e09 4abd
00000010: 9318 d6bc 30c6 9fbc b4f4 4ebd b1a9 42bd
00000020: 5faf dbbb 84a2 b73d e3ae 0bbd 5dca 3cbd
00000030: eaaa 1c3c fd94 9f3d 99d2 d7bb 085e 83bc
00000040: 5637 893d 0617 313d 1145 c73b f7b3 833a
00000050: c8cf 173d 7794 3d3c c00c b03c 8910 02bd
00000060: 52ea 0c3c d02f 943d 54c5 b539 a084 eb3b
00000070: cdeb 1dbd 73b9 7a3d 7177 a23c 77a8 6cbd
00000080: c589 23bd 45af 383d b6a2 853d df27 553b
00000090: 7eab 4b3d 40f0 133d 1f56 39bd 9fe6 95b9
000000a0: ac96 97bc 797b 553c f075 a63c cd78 463d
000000b0: 9585 2ebd 961e fa3c fee3 1d3d 3a16 c8bb
000000c0: c541 183d fb07 06bd 5c5e 37bc e729 0fbd
000000d0: 42ce 6fbc 135b be3c 7a28 743d 7cad 513c
000000e0: 3cc0 18bc ac12 a7bb 81dc 453d 415d bb3c
000000f0: bdbf 7ebc 4c90 18bd fe15 74bd 9a69 dabc
00000100: 7159 a03c 0ab7 b33c 1a6c 5fbd 7a30 48bb
00000110: 7734 703d 563f 903d fefc 693c 5334 a9bc
00000120: 6dfb 0fbd b14f d13c 17ea 933d 76e8 99bc
00000130: a601 013d 6035 49bc 6574 35bc acb2 053d
00000140: 1c38 803d 8616 423d 8d42 923d e73a 3f3c
00000150: 585c 8f3c 05a9 51bb e9e4 6cbc d4c8 37bd
00000160: 016b 7dbd 6967 fbbc 728c e63c 8d58 19bd
00000170: 6d06 4ebd dfec be3b 29ad 42bc 1b16 29bc
00000180: 5178 b33c 285e 513d 9319 7a3c 0f7f d03c
00000190: d05d 123d 4b6d 0ebd 455d 3cbc 2062 4abd
000001a0: 488d d83c 54af 873d 2f6c 45bd 72d0 c2ba
000001b0: 18dd 3abc 3c9e 6fbc 248a ffba 8a1a a3bc
000001c0: 794c cabb 01e0 2cbd 741e 89bc 3813 a83c
000001d0: e113 b8bc 47f2 0fbc 049c 7d3d 2410 273d
000001e0: d965 e33b 2618 d0bc 5fe4 ac3c 0762 6bbd
000001f0: 2220 893c ded6 db3b 466f 103d b748 32bd
0.0014584294 0.009470942 -0.051785998 -0.04932552 -0.026134765 -0.019503683 -0.050526336 -0.04752511
-0.0067042555 0.08966544 -0.03410233 -0.046091426 0.009562233 0.07792089 -0.0065863845 -0.016036049
0.067000076 0.043234847 0.0060812314 0.001004814 0.03706339 0.011571041 0.021490455 -0.03175405
0.008600788 0.07235682 0.0003467003 0.007187441 -0.038554955 0.061212014 0.019832345 -0.057777848
-0.03992631 0.045089025 0.06525175 0.0032524986 0.049724095 0.036117792 -0.045248147 -0.0002859132
-0.018504463 0.013029926 0.020319909 0.04845505 -0.042607863 0.030532163 0.03854751 -0.0061061652
0.037172098 -0.032722455 -0.011191931 -0.03495207 -0.014636578 0.023236787 0.059608914 0.01279771
-0.009323176 -0.0050986614 0.048305992 0.022871615 -0.015548644 -0.037246987 -0.059591286 -0.026661683
0.019573899 0.021937866 -0.054546453 -0.0030546472 0.058643784 0.0704333 0.014281509 -0.020654833
-0.035151888 0.025550695 0.072223835 -0.018787604 0.031495713 -0.012280792 -0.011075114 0.032641098
0.06260702 0.04738476 0.071416 0.011671758 0.017500088 -0.0031991613 -0.014458873 -0.04486926
-0.061869625 -0.030688958 0.028143141 -0.037437964 -0.050299097 0.005826577 -0.011882105 -0.010320212
0.021907957 0.051115185 0.015264886 0.025451211 0.035733998 -0.0347722 -0.011496847 -0.049409986
0.026434556 0.06625238 -0.048198875 -0.0014863147 -0.011405252 -0.014625128 -0.0019496125 -0.019910116
-0.006173667 -0.042205814 -0.016738154 0.020516977 -0.022470417 -0.008785791 0.061916366 0.040786877
0.0069396314 -0.02540214 0.02110499 -0.057466533 0.016738955 0.006708964 0.03526237 -0.043526378

fc2.weight f4 [64, 128]
00000000: 19ff 6abd cfd7 943d 9dd4 893d db4f 1abd
00000010: a5e7 3ebc 1fb2 84bd 84c8 cb3d b6ad 463d
00000020: 9a16 42bc 4532 27be 7d33 91bd a057 313d
00000030: 5f81 d5bd 4695 15bd 397e 53bd 2c35 25bd
00000040: eb8a 3bbc 3976 abbd a667 d63c f43b c63d
00000050: c833 31bc 9050 f73d b55f e53c 10bb 703d
00000060: e4c9 ac3d 8088 f13d ff77 abbd 0d4d 78bd
00000070: deae a23c 3fce 173d 7108 fdbd d191 633c
00000080: d5fd 9dbc 995b a43c 762b 8e3d 4309 ae3d
00000090: d356 193c 9ad7 803b 6715 b2bd 2022 51bd
000000a0: e52c 07bd b4d3 e8bd 5be5 44be cb26 e7bc
000000b0: 5ec7 0dbe 2dc7 b538 6321 1f3d 8a7a 143d
000000c0: 1769 d7bd c001 d13d c50a df3c aa35 1dbe
000000d0: b73b 3a3c cdb4 dcbd f578 c4bc 88dc 8abd
000000e0: c950 903d ca43 a4bd 9a3c f83d fc74 a0ba
000000f0: 8a72 05be 0898 f53d db75 7b3b 27dd 89bb
00000100: 37cb 0a3e 3f7e 66bd f9af 89bd 4a7e fd3d
00000110: dc94 aebc 9326 4d3d 25d6 1ebe 1c5a 72bd
00000120: 26f3 b93c 536d 06bd 7cbf 973d c259 f33c
00000130: bf4f f0bd c956 d23c 7c09 f93d 8751 523e
00000140: 7897 4ebd 1fbf 5e3d d3f6 8dbd b64e 4c3d
00000150: 2538 8c3d ed02 df3d 836a 623d 7214 c03c
00000160: 9753 01be 575a d0bd 2022 31bc e3f2 0e3e
00000170: 1e1a 7cbd 22d1 30bd 42ae 73bd 8a71 f7bd
00000180: 1821 09be 7169 e53d e5c8 a1bd 22e6 9d3c
00000190: d807 79ba cd3e d73c 2736 9f3d 3052 2b3d
000001a0: 2ce4 82bd ab83 1e3b 8e98 a8bc 0845 003d
000001b0: 7447 8cbd 8cb4 c5bd c104 e4bd 51c0 ce3c
000001c0: c107 3b3d 6a2c 15bd 2f3d 503d fd43 ac3d
000001d0: 1337 ab3d 8093 2f3d a3f8 de3d 257f 8d3d
000001e0: 4007 12be b8e2 883d 5152 4e3e 66c4 003d
000001f0: 7519 98bd 5e6b 80ba 50ca 86bd 4ef4 b03d
00000200: 69f2 8abc 787b dcbd 45e4 dc3d 23d1 413c
00000210: 50c4 5c3d c00e 94bd 13ff b03c c1f0 7bbd
00000220: 36f3 0a3c 6af5 08bc 9221 4e3c 1491 f0bd
00000230: f0c1 003e 4fb3 0c3c cf7a 54bc 5660 cd3d
00000240: 8b23 ecbc 53d7 81bb 4ae4 f13d 2df9 69bd
00000250: f3c7 063c 9c0f 2d3e 5760 b8bd bf67 76bd
00000260: 04c1 cabd 73e0 033c 9afe ed3c 0132 f0bb
00000270: 79f1 4bbd 0d39 65bd fae9 633d f530 84bd
00000280: 992a a839 ff74 d43d 1861 ed3d e7dd fdbd
00000290: 8fea 0a3d 2c3e 983c db35 633d 1ecd a8bd
000002a0: 228b 943c 6860 2a3d bee4 013d 06ab 213b
000002b0: 20c7 84bd b882 5ebc ad72 babd b219 6dbd
000002c0: bb21 6d3d a597 ad3d 127f 9fbd 4188 dd3d
000002d0: 93cb 73bb bbe1 87bd 2a83 1b3c bb71 1c3d
000002e0: ad4e f9bd f98b ebbc 1eca 8a3d 4fae cdbb
000002f0: 4198 e53d 9dde 02be 154a 78bd 0816 82bc
00000300: 5aad e6bd d938 f83d 42d2 f3bc 2274 373d
00000310: 6cb7 68bd 5f54 43bd d9a1 7fbc f325 893d
00000320: 0f80 8dba 2cdc 72bd 0c2c 1e3e 2373 b33d
00000330: cf1b 373d 3dbb 873d 3b56 a83d aeb8 223e
00000340: 4335 eabd dc88 9c3d 50dc b63d 92de 4ebd
00000350: 3fd3 2b3d 13e0 163e 55e5 903c d682 ba3d
00000360: 2324 7fbd 6f7a 2dbb 165a 63bd 08f0 32bb
00000370: 16ba 53bd 5f9b 8dbb 107b 163e e66d 8fbd
00000380: f73e 6abc 5497 f1bb 8cb5 1c3d 4fbe f53d
00000390: d8af 183b 79fe c73d aeb9 483d 9711 c53d
000003a0: 1da4 4cbd 2225 b0bd 3b65 5e3d 12e1 a53d
000003b0: 9314 82bd 1771 623c 829f 943d f363 343d
000003c0: aede a73d 88d2 de3c e921 27bd a842 65bd
000003d0: 3107 023d d955 6fbd 9d20 163c b0e2 3c3d
000003e0: ffa8 c8bd 28ce c5bd 7250 993d 5071 0d3e
000003f0: 39da 713d 43ab 7c3d a760 b53d e225 cfbd
-0.057372186 0.07267725 0.06730006 -0.037673812 -0.011651908 -0.064792864 0.09950355 0.048505507
-0.011846209 -0.1632777 -0.07089899 0.043296456 -0.10425066 -0.03651931 -0.051634047 -0.04033391
-0.011446695 -0.083721586 0.02617247 0.09679404 -0.010815568 0.12075913 0.027999738 0.058772147
0.08436945 0.117936134 -0.08372497 -0.060620356 0.019858774 0.037061926 -0.12355126 0.013889746
-0.019286076 0.020063208 0.06941883 0.0849786 0.009359079 0.0039319517 -0.086954884 -0.051057935
-0.0330018 -0.11368504 -0.19228117 -0.02821674 -0.13845584 8.667852e-05 0.0388502 0.036249675
-0.10518091 0.10205412 0.027226815 -0.15352502 0.011366776 -0.107766725 -0.023983458 -0.06780344
0.070466585 -0.08020742 0.12120934 -0.0012241895 -0.13031974 0.11991888 0.0038369808 -0.0042072716
0.13554083 -0.05627274 -0.06723017 0.12377603 -0.021311216 0.050085615 -0.15511377 -0.059167966
0.02269895 -0.032819103 0.074095696 0.029705886 -0.1173396 0.025676148 0.12160012 0.20538913
-0.05043742 0.054381486 -0.069318436 0.049879752 0.06846646 0.1088923 0.05527736 0.02344725
-0.12629543 -0.10173481 -0.010811359 0.13959841 -0.061548345 -0.043168195 -0.059492357 -0.12082203
-0.1339153 0.11201752 -0.07899646 0.019274775 -0.0009499765 0.026275063 0.077740006 0.041826427
-0.063911766 0.0024187367 -0.020580556 0.031315833 -0.06849566 -0.09653577 -0.11133719 0.025238188
0.04566169 -0.03641931 0.0508396 0.08411405 0.08360114 0.042865276 0.108872674 0.069090165
-0.14260578 0.06683868 0.20148589 0.0314373 -0.074267305 -0.0009797623 -0.06581557 0.086403474
-0.016961293 -0.10765737 0.107857265 0.011829647 0.053898156 -0.07229376 0.021606004 -0.061508898
0.008480838 -0.0083592925 0.012581246 -0.117464215 0.12573981 0.008587672 -0.012968733 0.1002814
-0.028825542 -0.003962436 0.11811121 -0.0571224 0.008226383 0.16900486 -0.0900275 -0.060157534
-0.09900096 0.008049118 0.029052068 -0.0073301797 -0.049790833 -0.05596261 0.05564306 -0.0645465
0.00032075195 0.10373878 0.11590785 -0.1239584 0.0339151 0.018584333 0.055471282 -0.08242248
0.01813275 0.041595846 0.031712286 0.0024668588 -0.064832926 -0.0135809705 -0.09103904 -0.057885833
0.057893496 0.084761895 -0.077879086 0.10817004 -0.0037200197 -0.066348515 0.009491721 0.0381944
-0.12173209 -0.028753268 0.06776832 -0.0062768827 0.11210681 -0.12780233 -0.060617525 -0.015879646
-0.11263533 0.12120218 -0.029763345 0.044788487 -0.05681555 -0.047687884 -0.015602552 0.06696691
-0.0010795611 -0.059292004 0.1544649 0.08762195 0.044704255 0.0662751 0.08219572 0.15890762
-0.1143594 0.07643291 0.0892874 -0.05050523 0.041949507 0.14733915 0.017687479 0.09106986
-0.062290322 -0.0026470681 -0.055505835 -0.0027303714 -0.051691137 -0.0043215 0.14695382 -0.07003383
-0.014297239 -0.007372776 0.038259074 0.11999189 0.002329817 0.09765334 0.049005203 0.096224956
-0.049961198 -0.086008325 0.05429576 0.080995694 -0.063515805 0.013820908 0.07256986 0.04404063
0.0819677 0.027199998 -0.040803824 -0.05597177 0.03174514 -0.05843148 0.009163049 0.046114624
-0.097978584 -0.09658462 0.07486047 0.13812757 0.059046004 0.061686765 0.088563256 -0.101146474

fc2.bias f4 [64]
00000000: 2a11 4c3c ff13 b73b 1983 8c3d 830a cebc
00000010: 8b5d 503d 2564 5a3d 530a 623c eb7f 05bd
00000020: eb3a acbd 820d e1bc ecba 5e3d 20cc 09bd
00000030: 20d3 593d b79a 513c c392 a2bd 808e 603d
00000040: 4f55 b4bd 8241 0c3d e203 88bd dea6 fcbc
00000050: 4db8 3cbd b4da ea3d 9297 a9bd 3e4c 423d
00000060: 9c1a b73c 1488 b9bd ec70 e23d 7dd5 28bc
00000070: 95aa 0a3e b0a8 98bd 0fca f03d f243 04bd
00000080: 23d5 6bbd aede 94bd a282 b83d 278b a83c
00000090: 35fd ae3d 198a e0bc a474 b83c 4f47 75bc
000000a0: 1415 b4bd e98a 553d 7749 adba 67d1 2cbc
000000b0: 9d6e c23c c32f 8bbd df06 2ebd 39a0 453d
000000c0: f045 adbd cc79 383d b5d5 843d 9c7d be3d
000000d0: 7757 8ebd c13f f0ba f204 963d 8081 743d
000000e0: 90d8 193d 9433 bfbc fbc9 b0bc f010 9bbd
000000f0: 3069 22bd 10af a1bc ec8c 78bd 8bcd bc3d
0.012455264 0.0055871005 0.068609424 -0.025151497 0.05087046 0.05331816 0.013796407 -0.032592695
-0.08409675 -0.027472261 0.05437748 -0.033641934 0.05317986 0.012793235 -0.07938149 0.0548234
-0.08805334 0.03424216 -0.066413656 -0.030841287 -0.0460742 0.114674956 -0.08280863 0.04743599
0.022351556 -0.09059158 0.110566944 -0.010304806 0.13541634 -0.074540496 0.117572896 -0.03229136
-0.05757631 -0.07269035 0.09009291 0.020574166 0.08544389 -0.0274096 0.022516556 -0.014970615
-0.08793083 0.05213443 -0.0013220747 -0.010547972 0.023734385 -0.06796219 -0.04248702 0.048248503
-0.08460605 0.04503803 0.06486074 0.09301302 -0.06950276 -0.0018329547 0.07325162 0.059693813
0.037560046 -0.023340024 -0.021580687 -0.0757159 -0.039651096 -0.019736797 -0.06068127 0.09218892

fc3.weight f4 [10, 64]
00000000: 69b6 843e d978 b03e 36d2 94be 5b99 923d
00000010: d013 94be 8c61 32be 703c 08be 9b15 1cbd
00000020: e0af efbc d909 123c 32bd 0cbd 784e 643e
00000030: 0099 94bd 8a27 a13e e328 ad3d 4e9b ebbd
00000040: f896 1ebb 7ad5 06be 762d d9bd 5b91 783e
00000050: 1f19 f8bd 13fa 543d 1a5b b13d dce8 67be
00000060: 18bc 5ebe 6e7c fabd 57d9 9f3d cae8 85bd
00000070: 00aa 573e 2085 2ebe d15b 9ebe 34bf 8b3d
00000080: ef44 2bbd 58f0 6abe cd1e 68be 7021 34be
00000090: 748d 53be 50ce b5bd a088 06bd 0b48 1dbe
000000a0: c359 e6bd 7db0 f4bd b3b1 e9bd 8e46 3fbd
000000b0: 4b14 13be fcea 563d ba4a 743d 049b 433e
000000c0: 1d21 3abd 608f 883e cc64 c53d 4f01 29bd
000000d0: 5e70 193e b9ab 05be 488c a53e c576 b73c
000000e0: 2d77 5f3e d880 f0bd 6a4a e43d 9900 c03d
000000f0: 490f 9fbd 2a7a 183d 3b87 be3c 78e2 373e
00000100: aca9 85be 955d 393e 5eed 353e 4eb6 a83c
00000110: 397f 663e 34e8 5cbe 5d58 173e 5369 95be
00000120: 180e 57bc 2cca 9b3d 4a4f 923e b2f5 7dbd
00000130: 0dff 203f 0b5e a33a 3d02 b83c 5e5a 2cbe
00000140: 31a7 1cbe c3c1 5f3e 1e64 5cbe 0419 fc3a
00000150: 67e5 923d 3430 e5be 99cc cebc f47d 1c3d
00000160: 4ac6 d9bd d0ed fa3d 5e60 bcbe e63c 74be
00000170: 8b10 103e e107 d13d ceec d23d bb08 dbbd
00000180: 46aa 9c3c 6382 8f3e 8e1b c6bd 5df5 cf3e
00000190: f325 98be 2441 5a3e a925 1cbd bc40 e9bd
000001a0: 7be0 a23c 1ad8 b43d 379a f83c 9c0d 09be
000001b0: 9f51 923d 6ab2 ab3c a945 743e bca8 87be
000001c0: e477 e0bd bd58 25be 8ddd 713d 2690 4cbe
000001d0: 9dbd d03d f148 5fbe d8dc 9d3d 1ad3 fabd
000001e0: 16e0 f3bd ee07 8c3d 4a86 a43e dace 783e
000001f0: 178d 92bd 6fbb d83d 5a30 33bd 32f9 ccbe
00000200: aa70 41be baaa 183e 8e90 c9be eeca 9c3c
00000210: 532d e93d 1472 053e a9f6 d73d 6bd2 e53d
00000220: 57ef c63c 8d39 523e 53fe d1bc d2d7 65be
00000230: 6734 eb3d bf30 e8bd 533a 19bd 6a1b 6a3e
00000240: 7749 fa3c e454 32be 1834 d63e a97e 8ebb
00000250: 554c f23d 2c97 7fbe ab12 bb3e b0c6 1cbe
00000260: 7575 6f3e 3ec2 133e b827 f83e b285 46be
00000270: 4ee2 9dbe 401a b0bd 0fc8 e23d e2d5 013e
00000280: 2f46 f7bd 4f38 45bd 3c0c 76bd aed4 b13e
00000290: 389a 67be 2e76 113e c79f 0fbe 1f63 1f3e
000002a0: cdec e03d 59de 9abe dad6 52be 41ca e03d
000002b0: a6b4 2cbd 5647 0c3b d1b6 51be ae9c 6e3e
000002c0: 92c9 cd3d fd8c eb3e 59e2 dc3d c068 a8be
000002d0: ed3b 26be df0d 5cbd ced8 d1be 8fc5 2abe
000002e0: bb82 64bd b8cb 82bc 17b8 213d 45d7 9339
000002f0: ef2b b7bb 2161 01be 9e3c 9a3d 672b f8bd
00000300: caac c4bd db95 6cbe 5959 aabe 16c2 e2bd
00000310: 8fbb 1cbe 1d86 373e af60 d13c b3b2 c0bc
00000320: cf2f 643c 0511 3d3e dec3 a1be 6124 083d
00000330: f3fd 533e 47f5 8ebd 8df6 0c3e 13b4 1cbe
00000340: 6c3f 4fbd e419 ea3c ccf9 8ebd d825 fdbd
00000350: 89e1 4ebc 21af 22bd ddb2 19be 8615 97be
00000360: 975f 27be 7840 093e 2e40 c83d 355e 70be
00000370: f6f8 23be da25 32be 4b57 18bd 9ada 5a3e
00000380: 1d47 c93d 2be5 23be 3d68 ea3e fea3 75bb
00000390: ad7a 7c3d acb9 bc3d 735d 653d 7044 bebd
000003a0: dbc4 89bd 73cd 2a3c a1dd be3e c946 683e
000003b0: bda1 e33d 0442 fc3d 7b3c 813e c86b 773e
000003c0: 758c 0dbd fcab 4cbc 1fb3 3f3e d81a b43e
000003d0: 7d0f 1bbc 0cc3 aa3e 116e 9cbe aeb0 6b3e
000003e0: 91f7 a7be 40dd 5ebd 2b2d 6c3d c94e 00be
000003f0: 1fa5 debc 5317 4bbd cd26 a3bc 345d c63d
0.25920418 0.344672 -0.29066628 0.071581565 -0.28921366 -0.17420024 -0.13304305 -0.038106542
-0.029258668 0.008913481 -0.03436012 0.22295558 -0.07255745 0.31475478 0.08455064 -0.115042314
-0.002419887 -0.13167372 -0.10604374 0.24274199 -0.121141665 0.0519963 0.08659954 -0.22647423
-0.2175144 -0.12230764 0.07805126 -0.065385416 0.21060944 -0.1704297 -0.30929425 0.068235785
-0.041813787 -0.22943246 -0.22668 -0.1759088 -0.20659429 -0.088772416 -0.03284514 -0.15359513
-0.112475894 -0.11947725 -0.114108466 -0.046698146 -0.1436321 0.052470192 0.059641577 0.19102103
-0.045441736 0.26671886 0.09638366 -0.041261014 0.14984271 -0.13053788 0.3233359 0.0223955
0.21822806 -0.11743325 0.11147006 0.09375114 -0.07766587 0.03722588 0.023257842 0.17957485
-0.26106012 0.18102105 0.1776633 0.020594742 0.22509469 -0.21572953 0.14779802 -0.29181919
-0.013125919 0.076069206 0.28576118 -0.06200189 0.62889177 0.001246394 0.022462005 -0.16831347
-0.15298153 0.21851258 -0.21522567 0.001923353 0.07172661 -0.4476334 -0.025244044 0.038206056
-0.10633524 0.122523904 -0.36792272 -0.23851356 0.1406881 0.10206581 0.10299073 -0.106950246
0.019124161 0.28029165 -0.096732244 0.40616885 -0.29716453 0.21313912 -0.038121853 -0.113893
0.019882431 0.088302806 0.030346973 -0.13384098 0.07144474 0.020959098 0.23854698 -0.26495922
-0.10960367 -0.16147132 0.059049178 -0.19976863 0.10192416 -0.21805169 0.07708138 -0.12247296
-0.119079754 0.0683745 0.32133704 0.24297658 -0.07155817 0.10582625 -0.043747284 -0.4003387
-0.18890634 0.14908877 -0.393681 0.019139733 0.11385598 0.13031799 0.105450936 0.11221775
0.024284048 0.20529766 -0.025633967 -0.2244561 0.11484604 -0.113374226 -0.037409138 0.2286202
0.030552609 -0.17415196 0.4183662 -0.004348595 0.118309654 -0.24960011 0.3653768 -0.15310168
0.2338465 0.14429566 0.48467803 -0.19386938 -0.3083672 -0.08598757 0.110733144 0.12679246
-0.12073933 -0.048149403 -0.06007026 0.34732574 -0.22617424 0.14205238 -0.14025794 0.15565155
0.10982666 -0.30247763 -0.20589772 0.10976077 -0.042164467 0.0021404824 -0.20479895 0.23301956
0.10048212 0.46006003 0.1078536 -0.32892418 -0.16233797 -0.053724166 -0.4098572 -0.16676925
-0.055788737 -0.015966281 0.039482202 0.00028198413 -0.005589954 -0.12634708 0.07531093 -0.12117653
-0.096032694 -0.2310404 -0.33271292 -0.11072175 -0.15305923 0.17922254 0.025558798 -0.02352271
0.013927414 0.18463524 -0.31594747 0.03323782 0.20702343 -0.06980377 0.13765927 -0.15303068
-0.050597593 0.028576799 -0.06981239 -0.12360734 -0.012627014 -0.039717797 -0.15009637 -0.2950861
-0.16345058 0.13403499 0.09777866 -0.23473437 -0.1601294 -0.17397252 -0.037192624 0.21372452
0.09828017 -0.1600539 0.45782652 -0.003748178 0.06164043 0.092151016 0.055997323 -0.09290397
-0.06727 0.0104249595 0.37278464 0.22683252 0.111148335 0.12317279 0.25241455 0.24162209
-0.03455778 -0.012492176 0.18720673 0.3517673 -0.009464142 0.33351934 -0.30552724 0.23016617
-0.32806066 -0.05441022 0.057660263 -0.12530054 -0.027178345 -0.04958279 -0.019915963 0.09685746

fc3.bias f4 [10]
00000000: 17e3 04be ada9 8d3d f279 7ebd f324 cabd
00000010: 3904 a5bc 6980 4ebc f176 943c e88c bfbd
00000020: cb30 83bc 64aa b2bd
-0.12977253 0.06917129 -0.062128015 -0.09870329 -0.020143615 -0.012603858 0.018123122 -0.093530476
-0.016014477 -0.08723906
